{"class_name": "Model", "config": {"name": "model", "layers": [{"name": "input_1", "class_name": "InputLayer", "config": {"batch_input_shape": [null, 416, 416, 3], "dtype": "float32", "sparse": false, "ragged": false, "name": "input_1"}, "inbound_nodes": []}, {"name": "conv2d", "class_name": "Conv2D", "config": {"name": "conv2d", "trainable": true, "dtype": "float32", "filters": 32, "kernel_size": [3, 3], "strides": [1, 1], "padding": "same", "data_format": "channels_last", "dilation_rate": [1, 1], "activation": "linear", "use_bias": false, "kernel_initializer": {"class_name": "RandomNormal", "config": {"mean": 0.0, "stddev": 0.01, "seed": null, "dtype": "float32"}}, "bias_initializer": {"class_name": "Constant", "config": {"value": 0.0, "dtype": "float32"}}, "kernel_regularizer": {"class_name": "L1L2", "config": {"l1": 0.0, "l2": 0.0005000000237487257}}, "bias_regularizer": null, "activity_regularizer": null, "kernel_constraint": null, "bias_constraint": null}, "inbound_nodes": [[["input_1", 0, 0, {}]]]}, {"name": "batch_normalization", "class_name": "BatchNormalization", "config": {"name": "batch_normalization", "trainable": true, "dtype": "float32", "axis": [3], "momentum": 0.99, "epsilon": 0.001, "center": true, "scale": true, "beta_initializer": {"class_name": "Zeros", "config": {"dtype": "float32"}}, "gamma_initializer": {"class_name": "Ones", "config": {"dtype": "float32"}}, "moving_mean_initializer": {"class_name": "Zeros", "config": {"dtype": "float32"}}, "moving_variance_initializer": {"class_name": "Ones", "config": {"dtype": "float32"}}, "beta_regularizer": null, "gamma_regularizer": null, "beta_constraint": null, "gamma_constraint": null}, "inbound_nodes": [[["conv2d", 0, 0, {}]]]}, {"name": "lambda", "class_name": "Lambda", "config": {"name": "lambda", "trainable": true, "dtype": "float32", "function": ["4wEAAAAAAAAAAQAAAAYAAABTAAAAcyAAAAB8AHQAagF0AGoCagNkAXQAagR8AIMBFwCDAYMBFABT\nACkCTukBAAAAKQXaAnRm2gR0YW5o2gRtYXRo2gNsb2faA2V4cCkB2gF4qQByCAAAAPo5L2hvbWUv\nYjkyMDQwNS9naXQvdGVuc29yZmxvdy15b2xvdjQtdGZsaXRlL2NvcmUvY29tbW9uLnB52gg8bGFt\nYmRhPj4AAADzAAAAAA==\n", null, null], "function_type": "lambda", "module": "core.common", "output_shape": null, "output_shape_type": "raw", "output_shape_module": null, "arguments": {}}, "inbound_nodes": [[["batch_normalization", 0, 0, {}]]]}, {"name": "zero_padding2d", "class_name": "ZeroPadding2D", "config": {"name": "zero_padding2d", "trainable": true, "dtype": "float32", "padding": [[1, 0], [1, 0]], "data_format": "channels_last"}, "inbound_nodes": [[["lambda", 0, 0, {}]]]}, {"name": "conv2d_1", "class_name": "Conv2D", "config": {"name": "conv2d_1", "trainable": true, "dtype": "float32", "filters": 64, "kernel_size": [3, 3], "strides": [2, 2], "padding": "valid", "data_format": "channels_last", "dilation_rate": [1, 1], "activation": "linear", "use_bias": false, "kernel_initializer": {"class_name": "RandomNormal", "config": {"mean": 0.0, "stddev": 0.01, "seed": null, "dtype": "float32"}}, "bias_initializer": {"class_name": "Constant", "config": {"value": 0.0, "dtype": "float32"}}, "kernel_regularizer": {"class_name": "L1L2", "config": {"l1": 0.0, "l2": 0.0005000000237487257}}, "bias_regularizer": null, "activity_regularizer": null, "kernel_constraint": null, "bias_constraint": null}, "inbound_nodes": [[["zero_padding2d", 0, 0, {}]]]}, {"name": "batch_normalization_1", "class_name": "BatchNormalization", "config": {"name": "batch_normalization_1", "trainable": true, "dtype": "float32", "axis": [3], "momentum": 0.99, "epsilon": 0.001, "center": true, "scale": true, "beta_initializer": {"class_name": "Zeros", "config": {"dtype": "float32"}}, "gamma_initializer": {"class_name": "Ones", "config": {"dtype": "float32"}}, "moving_mean_initializer": {"class_name": "Zeros", "config": {"dtype": "float32"}}, "moving_variance_initializer": {"class_name": "Ones", "config": {"dtype": "float32"}}, "beta_regularizer": null, "gamma_regularizer": null, "beta_constraint": null, "gamma_constraint": null}, "inbound_nodes": [[["conv2d_1", 0, 0, {}]]]}, {"name": "lambda_1", "class_name": "Lambda", "config": {"name": "lambda_1", "trainable": true, "dtype": "float32", "function": ["4wEAAAAAAAAAAQAAAAYAAABTAAAAcyAAAAB8AHQAagF0AGoCagNkAXQAagR8AIMBFwCDAYMBFABT\nACkCTukBAAAAKQXaAnRm2gR0YW5o2gRtYXRo2gNsb2faA2V4cCkB2gF4qQByCAAAAPo5L2hvbWUv\nYjkyMDQwNS9naXQvdGVuc29yZmxvdy15b2xvdjQtdGZsaXRlL2NvcmUvY29tbW9uLnB52gg8bGFt\nYmRhPj4AAADzAAAAAA==\n", null, null], "function_type": "lambda", "module": "core.common", "output_shape": null, "output_shape_type": "raw", "output_shape_module": null, "arguments": {}}, "inbound_nodes": [[["batch_normalization_1", 0, 0, {}]]]}, {"name": "conv2d_3", "class_name": "Conv2D", "config": {"name": "conv2d_3", "trainable": true, "dtype": "float32", "filters": 64, "kernel_size": [1, 1], "strides": [1, 1], "padding": "same", "data_format": "channels_last", "dilation_rate": [1, 1], "activation": "linear", "use_bias": false, "kernel_initializer": {"class_name": "RandomNormal", "config": {"mean": 0.0, "stddev": 0.01, "seed": null, "dtype": "float32"}}, "bias_initializer": {"class_name": "Constant", "config": {"value": 0.0, "dtype": "float32"}}, "kernel_regularizer": {"class_name": "L1L2", "config": {"l1": 0.0, "l2": 0.0005000000237487257}}, "bias_regularizer": null, "activity_regularizer": null, "kernel_constraint": null, "bias_constraint": null}, "inbound_nodes": [[["lambda_1", 0, 0, {}]]]}, {"name": "batch_normalization_3", "class_name": "BatchNormalization", "config": {"name": "batch_normalization_3", "trainable": true, "dtype": "float32", "axis": [3], "momentum": 0.99, "epsilon": 0.001, "center": true, "scale": true, "beta_initializer": {"class_name": "Zeros", "config": {"dtype": "float32"}}, "gamma_initializer": {"class_name": "Ones", "config": {"dtype": "float32"}}, "moving_mean_initializer": {"class_name": "Zeros", "config": {"dtype": "float32"}}, "moving_variance_initializer": {"class_name": "Ones", "config": {"dtype": "float32"}}, "beta_regularizer": null, "gamma_regularizer": null, "beta_constraint": null, "gamma_constraint": null}, "inbound_nodes": [[["conv2d_3", 0, 0, {}]]]}, {"name": "lambda_3", "class_name": "Lambda", "config": {"name": "lambda_3", "trainable": true, "dtype": "float32", "function": ["4wEAAAAAAAAAAQAAAAYAAABTAAAAcyAAAAB8AHQAagF0AGoCagNkAXQAagR8AIMBFwCDAYMBFABT\nACkCTukBAAAAKQXaAnRm2gR0YW5o2gRtYXRo2gNsb2faA2V4cCkB2gF4qQByCAAAAPo5L2hvbWUv\nYjkyMDQwNS9naXQvdGVuc29yZmxvdy15b2xvdjQtdGZsaXRlL2NvcmUvY29tbW9uLnB52gg8bGFt\nYmRhPj4AAADzAAAAAA==\n", null, null], "function_type": "lambda", "module": "core.common", "output_shape": null, "output_shape_type": "raw", "output_shape_module": null, "arguments": {}}, "inbound_nodes": [[["batch_normalization_3", 0, 0, {}]]]}, {"name": "conv2d_4", "class_name": "Conv2D", "config": {"name": "conv2d_4", "trainable": true, "dtype": "float32", "filters": 32, "kernel_size": [1, 1], "strides": [1, 1], "padding": "same", "data_format": "channels_last", "dilation_rate": [1, 1], "activation": "linear", "use_bias": false, "kernel_initializer": {"class_name": "RandomNormal", "config": {"mean": 0.0, "stddev": 0.01, "seed": null, "dtype": "float32"}}, "bias_initializer": {"class_name": "Constant", "config": {"value": 0.0, "dtype": "float32"}}, "kernel_regularizer": {"class_name": "L1L2", "config": {"l1": 0.0, "l2": 0.0005000000237487257}}, "bias_regularizer": null, "activity_regularizer": null, "kernel_constraint": null, "bias_constraint": null}, "inbound_nodes": [[["lambda_3", 0, 0, {}]]]}, {"name": "batch_normalization_4", "class_name": "BatchNormalization", "config": {"name": "batch_normalization_4", "trainable": true, "dtype": "float32", "axis": [3], "momentum": 0.99, "epsilon": 0.001, "center": true, "scale": true, "beta_initializer": {"class_name": "Zeros", "config": {"dtype": "float32"}}, "gamma_initializer": {"class_name": "Ones", "config": {"dtype": "float32"}}, "moving_mean_initializer": {"class_name": "Zeros", "config": {"dtype": "float32"}}, "moving_variance_initializer": {"class_name": "Ones", "config": {"dtype": "float32"}}, "beta_regularizer": null, "gamma_regularizer": null, "beta_constraint": null, "gamma_constraint": null}, "inbound_nodes": [[["conv2d_4", 0, 0, {}]]]}, {"name": "lambda_4", "class_name": "Lambda", "config": {"name": "lambda_4", "trainable": true, "dtype": "float32", "function": ["4wEAAAAAAAAAAQAAAAYAAABTAAAAcyAAAAB8AHQAagF0AGoCagNkAXQAagR8AIMBFwCDAYMBFABT\nACkCTukBAAAAKQXaAnRm2gR0YW5o2gRtYXRo2gNsb2faA2V4cCkB2gF4qQByCAAAAPo5L2hvbWUv\nYjkyMDQwNS9naXQvdGVuc29yZmxvdy15b2xvdjQtdGZsaXRlL2NvcmUvY29tbW9uLnB52gg8bGFt\nYmRhPj4AAADzAAAAAA==\n", null, null], "function_type": "lambda", "module": "core.common", "output_shape": null, "output_shape_type": "raw", "output_shape_module": null, "arguments": {}}, "inbound_nodes": [[["batch_normalization_4", 0, 0, {}]]]}, {"name": "conv2d_5", "class_name": "Conv2D", "config": {"name": "conv2d_5", "trainable": true, "dtype": "float32", "filters": 64, "kernel_size": [3, 3], "strides": [1, 1], "padding": "same", "data_format": "channels_last", "dilation_rate": [1, 1], "activation": "linear", "use_bias": false, "kernel_initializer": {"class_name": "RandomNormal", "config": {"mean": 0.0, "stddev": 0.01, "seed": null, "dtype": "float32"}}, "bias_initializer": {"class_name": "Constant", "config": {"value": 0.0, "dtype": "float32"}}, "kernel_regularizer": {"class_name": "L1L2", "config": {"l1": 0.0, "l2": 0.0005000000237487257}}, "bias_regularizer": null, "activity_regularizer": null, "kernel_constraint": null, "bias_constraint": null}, "inbound_nodes": [[["lambda_4", 0, 0, {}]]]}, {"name": "batch_normalization_5", "class_name": "BatchNormalization", "config": {"name": "batch_normalization_5", "trainable": true, "dtype": "float32", "axis": [3], "momentum": 0.99, "epsilon": 0.001, "center": true, "scale": true, "beta_initializer": {"class_name": "Zeros", "config": {"dtype": "float32"}}, "gamma_initializer": {"class_name": "Ones", "config": {"dtype": "float32"}}, "moving_mean_initializer": {"class_name": "Zeros", "config": {"dtype": "float32"}}, "moving_variance_initializer": {"class_name": "Ones", "config": {"dtype": "float32"}}, "beta_regularizer": null, "gamma_regularizer": null, "beta_constraint": null, "gamma_constraint": null}, "inbound_nodes": [[["conv2d_5", 0, 0, {}]]]}, {"name": "lambda_5", "class_name": "Lambda", "config": {"name": "lambda_5", "trainable": true, "dtype": "float32", "function": ["4wEAAAAAAAAAAQAAAAYAAABTAAAAcyAAAAB8AHQAagF0AGoCagNkAXQAagR8AIMBFwCDAYMBFABT\nACkCTukBAAAAKQXaAnRm2gR0YW5o2gRtYXRo2gNsb2faA2V4cCkB2gF4qQByCAAAAPo5L2hvbWUv\nYjkyMDQwNS9naXQvdGVuc29yZmxvdy15b2xvdjQtdGZsaXRlL2NvcmUvY29tbW9uLnB52gg8bGFt\nYmRhPj4AAADzAAAAAA==\n", null, null], "function_type": "lambda", "module": "core.common", "output_shape": null, "output_shape_type": "raw", "output_shape_module": null, "arguments": {}}, "inbound_nodes": [[["batch_normalization_5", 0, 0, {}]]]}, {"name": "tf_op_layer_add", "class_name": "TensorFlowOpLayer", "config": {"name": "add", "trainable": true, "dtype": null, "node_def": {"name": "add", "op": "AddV2", "input": ["lambda_3/mul", "lambda_5/mul"], "attr": {"T": {"type": "DT_FLOAT"}}}, "constants": {}}, "inbound_nodes": [[["lambda_3", 0, 0, {}], ["lambda_5", 0, 0, {}]]]}, {"name": "conv2d_6", "class_name": "Conv2D", "config": {"name": "conv2d_6", "trainable": true, "dtype": "float32", "filters": 64, "kernel_size": [1, 1], "strides": [1, 1], "padding": "same", "data_format": "channels_last", "dilation_rate": [1, 1], "activation": "linear", "use_bias": false, "kernel_initializer": {"class_name": "RandomNormal", "config": {"mean": 0.0, "stddev": 0.01, "seed": null, "dtype": "float32"}}, "bias_initializer": {"class_name": "Constant", "config": {"value": 0.0, "dtype": "float32"}}, "kernel_regularizer": {"class_name": "L1L2", "config": {"l1": 0.0, "l2": 0.0005000000237487257}}, "bias_regularizer": null, "activity_regularizer": null, "kernel_constraint": null, "bias_constraint": null}, "inbound_nodes": [[["tf_op_layer_add", 0, 0, {}]]]}, {"name": "conv2d_2", "class_name": "Conv2D", "config": {"name": "conv2d_2", "trainable": true, "dtype": "float32", "filters": 64, "kernel_size": [1, 1], "strides": [1, 1], "padding": "same", "data_format": "channels_last", "dilation_rate": [1, 1], "activation": "linear", "use_bias": false, "kernel_initializer": {"class_name": "RandomNormal", "config": {"mean": 0.0, "stddev": 0.01, "seed": null, "dtype": "float32"}}, "bias_initializer": {"class_name": "Constant", "config": {"value": 0.0, "dtype": "float32"}}, "kernel_regularizer": {"class_name": "L1L2", "config": {"l1": 0.0, "l2": 0.0005000000237487257}}, "bias_regularizer": null, "activity_regularizer": null, "kernel_constraint": null, "bias_constraint": null}, "inbound_nodes": [[["lambda_1", 0, 0, {}]]]}, {"name": "batch_normalization_6", "class_name": "BatchNormalization", "config": {"name": "batch_normalization_6", "trainable": true, "dtype": "float32", "axis": [3], "momentum": 0.99, "epsilon": 0.001, "center": true, "scale": true, "beta_initializer": {"class_name": "Zeros", "config": {"dtype": "float32"}}, "gamma_initializer": {"class_name": "Ones", "config": {"dtype": "float32"}}, "moving_mean_initializer": {"class_name": "Zeros", "config": {"dtype": "float32"}}, "moving_variance_initializer": {"class_name": "Ones", "config": {"dtype": "float32"}}, "beta_regularizer": null, "gamma_regularizer": null, "beta_constraint": null, "gamma_constraint": null}, "inbound_nodes": [[["conv2d_6", 0, 0, {}]]]}, {"name": "batch_normalization_2", "class_name": "BatchNormalization", "config": {"name": "batch_normalization_2", "trainable": true, "dtype": "float32", "axis": [3], "momentum": 0.99, "epsilon": 0.001, "center": true, "scale": true, "beta_initializer": {"class_name": "Zeros", "config": {"dtype": "float32"}}, "gamma_initializer": {"class_name": "Ones", "config": {"dtype": "float32"}}, "moving_mean_initializer": {"class_name": "Zeros", "config": {"dtype": "float32"}}, "moving_variance_initializer": {"class_name": "Ones", "config": {"dtype": "float32"}}, "beta_regularizer": null, "gamma_regularizer": null, "beta_constraint": null, "gamma_constraint": null}, "inbound_nodes": [[["conv2d_2", 0, 0, {}]]]}, {"name": "lambda_6", "class_name": "Lambda", "config": {"name": "lambda_6", "trainable": true, "dtype": "float32", "function": ["4wEAAAAAAAAAAQAAAAYAAABTAAAAcyAAAAB8AHQAagF0AGoCagNkAXQAagR8AIMBFwCDAYMBFABT\nACkCTukBAAAAKQXaAnRm2gR0YW5o2gRtYXRo2gNsb2faA2V4cCkB2gF4qQByCAAAAPo5L2hvbWUv\nYjkyMDQwNS9naXQvdGVuc29yZmxvdy15b2xvdjQtdGZsaXRlL2NvcmUvY29tbW9uLnB52gg8bGFt\nYmRhPj4AAADzAAAAAA==\n", null, null], "function_type": "lambda", "module": "core.common", "output_shape": null, "output_shape_type": "raw", "output_shape_module": null, "arguments": {}}, "inbound_nodes": [[["batch_normalization_6", 0, 0, {}]]]}, {"name": "lambda_2", "class_name": "Lambda", "config": {"name": "lambda_2", "trainable": true, "dtype": "float32", "function": ["4wEAAAAAAAAAAQAAAAYAAABTAAAAcyAAAAB8AHQAagF0AGoCagNkAXQAagR8AIMBFwCDAYMBFABT\nACkCTukBAAAAKQXaAnRm2gR0YW5o2gRtYXRo2gNsb2faA2V4cCkB2gF4qQByCAAAAPo5L2hvbWUv\nYjkyMDQwNS9naXQvdGVuc29yZmxvdy15b2xvdjQtdGZsaXRlL2NvcmUvY29tbW9uLnB52gg8bGFt\nYmRhPj4AAADzAAAAAA==\n", null, null], "function_type": "lambda", "module": "core.common", "output_shape": null, "output_shape_type": "raw", "output_shape_module": null, "arguments": {}}, "inbound_nodes": [[["batch_normalization_2", 0, 0, {}]]]}, {"name": "tf_op_layer_concat", "class_name": "TensorFlowOpLayer", "config": {"name": "concat", "trainable": true, "dtype": null, "node_def": {"name": "concat", "op": "ConcatV2", "input": ["lambda_6/mul", "lambda_2/mul", "concat/axis"], "attr": {"T": {"type": "DT_FLOAT"}, "N": {"i": "2"}, "Tidx": {"type": "DT_INT32"}}}, "constants": {"2": -1}}, "inbound_nodes": [[["lambda_6", 0, 0, {}], ["lambda_2", 0, 0, {}]]]}, {"name": "conv2d_7", "class_name": "Conv2D", "config": {"name": "conv2d_7", "trainable": true, "dtype": "float32", "filters": 64, "kernel_size": [1, 1], "strides": [1, 1], "padding": "same", "data_format": "channels_last", "dilation_rate": [1, 1], "activation": "linear", "use_bias": false, "kernel_initializer": {"class_name": "RandomNormal", "config": {"mean": 0.0, "stddev": 0.01, "seed": null, "dtype": "float32"}}, "bias_initializer": {"class_name": "Constant", "config": {"value": 0.0, "dtype": "float32"}}, "kernel_regularizer": {"class_name": "L1L2", "config": {"l1": 0.0, "l2": 0.0005000000237487257}}, "bias_regularizer": null, "activity_regularizer": null, "kernel_constraint": null, "bias_constraint": null}, "inbound_nodes": [[["tf_op_layer_concat", 0, 0, {}]]]}, {"name": "batch_normalization_7", "class_name": "BatchNormalization", "config": {"name": "batch_normalization_7", "trainable": true, "dtype": "float32", "axis": [3], "momentum": 0.99, "epsilon": 0.001, "center": true, "scale": true, "beta_initializer": {"class_name": "Zeros", "config": {"dtype": "float32"}}, "gamma_initializer": {"class_name": "Ones", "config": {"dtype": "float32"}}, "moving_mean_initializer": {"class_name": "Zeros", "config": {"dtype": "float32"}}, "moving_variance_initializer": {"class_name": "Ones", "config": {"dtype": "float32"}}, "beta_regularizer": null, "gamma_regularizer": null, "beta_constraint": null, "gamma_constraint": null}, "inbound_nodes": [[["conv2d_7", 0, 0, {}]]]}, {"name": "lambda_7", "class_name": "Lambda", "config": {"name": "lambda_7", "trainable": true, "dtype": "float32", "function": ["4wEAAAAAAAAAAQAAAAYAAABTAAAAcyAAAAB8AHQAagF0AGoCagNkAXQAagR8AIMBFwCDAYMBFABT\nACkCTukBAAAAKQXaAnRm2gR0YW5o2gRtYXRo2gNsb2faA2V4cCkB2gF4qQByCAAAAPo5L2hvbWUv\nYjkyMDQwNS9naXQvdGVuc29yZmxvdy15b2xvdjQtdGZsaXRlL2NvcmUvY29tbW9uLnB52gg8bGFt\nYmRhPj4AAADzAAAAAA==\n", null, null], "function_type": "lambda", "module": "core.common", "output_shape": null, "output_shape_type": "raw", "output_shape_module": null, "arguments": {}}, "inbound_nodes": [[["batch_normalization_7", 0, 0, {}]]]}, {"name": "zero_padding2d_1", "class_name": "ZeroPadding2D", "config": {"name": "zero_padding2d_1", "trainable": true, "dtype": "float32", "padding": [[1, 0], [1, 0]], "data_format": "channels_last"}, "inbound_nodes": [[["lambda_7", 0, 0, {}]]]}, {"name": "conv2d_8", "class_name": "Conv2D", "config": {"name": "conv2d_8", "trainable": true, "dtype": "float32", "filters": 128, "kernel_size": [3, 3], "strides": [2, 2], "padding": "valid", "data_format": "channels_last", "dilation_rate": [1, 1], "activation": "linear", "use_bias": false, "kernel_initializer": {"class_name": "RandomNormal", "config": {"mean": 0.0, "stddev": 0.01, "seed": null, "dtype": "float32"}}, "bias_initializer": {"class_name": "Constant", "config": {"value": 0.0, "dtype": "float32"}}, "kernel_regularizer": {"class_name": "L1L2", "config": {"l1": 0.0, "l2": 0.0005000000237487257}}, "bias_regularizer": null, "activity_regularizer": null, "kernel_constraint": null, "bias_constraint": null}, "inbound_nodes": [[["zero_padding2d_1", 0, 0, {}]]]}, {"name": "batch_normalization_8", "class_name": "BatchNormalization", "config": {"name": "batch_normalization_8", "trainable": true, "dtype": "float32", "axis": [3], "momentum": 0.99, "epsilon": 0.001, "center": true, "scale": true, "beta_initializer": {"class_name": "Zeros", "config": {"dtype": "float32"}}, "gamma_initializer": {"class_name": "Ones", "config": {"dtype": "float32"}}, "moving_mean_initializer": {"class_name": "Zeros", "config": {"dtype": "float32"}}, "moving_variance_initializer": {"class_name": "Ones", "config": {"dtype": "float32"}}, "beta_regularizer": null, "gamma_regularizer": null, "beta_constraint": null, "gamma_constraint": null}, "inbound_nodes": [[["conv2d_8", 0, 0, {}]]]}, {"name": "lambda_8", "class_name": "Lambda", "config": {"name": "lambda_8", "trainable": true, "dtype": "float32", "function": ["4wEAAAAAAAAAAQAAAAYAAABTAAAAcyAAAAB8AHQAagF0AGoCagNkAXQAagR8AIMBFwCDAYMBFABT\nACkCTukBAAAAKQXaAnRm2gR0YW5o2gRtYXRo2gNsb2faA2V4cCkB2gF4qQByCAAAAPo5L2hvbWUv\nYjkyMDQwNS9naXQvdGVuc29yZmxvdy15b2xvdjQtdGZsaXRlL2NvcmUvY29tbW9uLnB52gg8bGFt\nYmRhPj4AAADzAAAAAA==\n", null, null], "function_type": "lambda", "module": "core.common", "output_shape": null, "output_shape_type": "raw", "output_shape_module": null, "arguments": {}}, "inbound_nodes": [[["batch_normalization_8", 0, 0, {}]]]}, {"name": "conv2d_10", "class_name": "Conv2D", "config": {"name": "conv2d_10", "trainable": true, "dtype": "float32", "filters": 64, "kernel_size": [1, 1], "strides": [1, 1], "padding": "same", "data_format": "channels_last", "dilation_rate": [1, 1], "activation": "linear", "use_bias": false, "kernel_initializer": {"class_name": "RandomNormal", "config": {"mean": 0.0, "stddev": 0.01, "seed": null, "dtype": "float32"}}, "bias_initializer": {"class_name": "Constant", "config": {"value": 0.0, "dtype": "float32"}}, "kernel_regularizer": {"class_name": "L1L2", "config": {"l1": 0.0, "l2": 0.0005000000237487257}}, "bias_regularizer": null, "activity_regularizer": null, "kernel_constraint": null, "bias_constraint": null}, "inbound_nodes": [[["lambda_8", 0, 0, {}]]]}, {"name": "batch_normalization_10", "class_name": "BatchNormalization", "config": {"name": "batch_normalization_10", "trainable": true, "dtype": "float32", "axis": [3], "momentum": 0.99, "epsilon": 0.001, "center": true, "scale": true, "beta_initializer": {"class_name": "Zeros", "config": {"dtype": "float32"}}, "gamma_initializer": {"class_name": "Ones", "config": {"dtype": "float32"}}, "moving_mean_initializer": {"class_name": "Zeros", "config": {"dtype": "float32"}}, "moving_variance_initializer": {"class_name": "Ones", "config": {"dtype": "float32"}}, "beta_regularizer": null, "gamma_regularizer": null, "beta_constraint": null, "gamma_constraint": null}, "inbound_nodes": [[["conv2d_10", 0, 0, {}]]]}, {"name": "lambda_10", "class_name": "Lambda", "config": {"name": "lambda_10", "trainable": true, "dtype": "float32", "function": ["4wEAAAAAAAAAAQAAAAYAAABTAAAAcyAAAAB8AHQAagF0AGoCagNkAXQAagR8AIMBFwCDAYMBFABT\nACkCTukBAAAAKQXaAnRm2gR0YW5o2gRtYXRo2gNsb2faA2V4cCkB2gF4qQByCAAAAPo5L2hvbWUv\nYjkyMDQwNS9naXQvdGVuc29yZmxvdy15b2xvdjQtdGZsaXRlL2NvcmUvY29tbW9uLnB52gg8bGFt\nYmRhPj4AAADzAAAAAA==\n", null, null], "function_type": "lambda", "module": "core.common", "output_shape": null, "output_shape_type": "raw", "output_shape_module": null, "arguments": {}}, "inbound_nodes": [[["batch_normalization_10", 0, 0, {}]]]}, {"name": "conv2d_11", "class_name": "Conv2D", "config": {"name": "conv2d_11", "trainable": true, "dtype": "float32", "filters": 64, "kernel_size": [1, 1], "strides": [1, 1], "padding": "same", "data_format": "channels_last", "dilation_rate": [1, 1], "activation": "linear", "use_bias": false, "kernel_initializer": {"class_name": "RandomNormal", "config": {"mean": 0.0, "stddev": 0.01, "seed": null, "dtype": "float32"}}, "bias_initializer": {"class_name": "Constant", "config": {"value": 0.0, "dtype": "float32"}}, "kernel_regularizer": {"class_name": "L1L2", "config": {"l1": 0.0, "l2": 0.0005000000237487257}}, "bias_regularizer": null, "activity_regularizer": null, "kernel_constraint": null, "bias_constraint": null}, "inbound_nodes": [[["lambda_10", 0, 0, {}]]]}, {"name": "batch_normalization_11", "class_name": "BatchNormalization", "config": {"name": "batch_normalization_11", "trainable": true, "dtype": "float32", "axis": [3], "momentum": 0.99, "epsilon": 0.001, "center": true, "scale": true, "beta_initializer": {"class_name": "Zeros", "config": {"dtype": "float32"}}, "gamma_initializer": {"class_name": "Ones", "config": {"dtype": "float32"}}, "moving_mean_initializer": {"class_name": "Zeros", "config": {"dtype": "float32"}}, "moving_variance_initializer": {"class_name": "Ones", "config": {"dtype": "float32"}}, "beta_regularizer": null, "gamma_regularizer": null, "beta_constraint": null, "gamma_constraint": null}, "inbound_nodes": [[["conv2d_11", 0, 0, {}]]]}, {"name": "lambda_11", "class_name": "Lambda", "config": {"name": "lambda_11", "trainable": true, "dtype": "float32", "function": ["4wEAAAAAAAAAAQAAAAYAAABTAAAAcyAAAAB8AHQAagF0AGoCagNkAXQAagR8AIMBFwCDAYMBFABT\nACkCTukBAAAAKQXaAnRm2gR0YW5o2gRtYXRo2gNsb2faA2V4cCkB2gF4qQByCAAAAPo5L2hvbWUv\nYjkyMDQwNS9naXQvdGVuc29yZmxvdy15b2xvdjQtdGZsaXRlL2NvcmUvY29tbW9uLnB52gg8bGFt\nYmRhPj4AAADzAAAAAA==\n", null, null], "function_type": "lambda", "module": "core.common", "output_shape": null, "output_shape_type": "raw", "output_shape_module": null, "arguments": {}}, "inbound_nodes": [[["batch_normalization_11", 0, 0, {}]]]}, {"name": "conv2d_12", "class_name": "Conv2D", "config": {"name": "conv2d_12", "trainable": true, "dtype": "float32", "filters": 64, "kernel_size": [3, 3], "strides": [1, 1], "padding": "same", "data_format": "channels_last", "dilation_rate": [1, 1], "activation": "linear", "use_bias": false, "kernel_initializer": {"class_name": "RandomNormal", "config": {"mean": 0.0, "stddev": 0.01, "seed": null, "dtype": "float32"}}, "bias_initializer": {"class_name": "Constant", "config": {"value": 0.0, "dtype": "float32"}}, "kernel_regularizer": {"class_name": "L1L2", "config": {"l1": 0.0, "l2": 0.0005000000237487257}}, "bias_regularizer": null, "activity_regularizer": null, "kernel_constraint": null, "bias_constraint": null}, "inbound_nodes": [[["lambda_11", 0, 0, {}]]]}, {"name": "batch_normalization_12", "class_name": "BatchNormalization", "config": {"name": "batch_normalization_12", "trainable": true, "dtype": "float32", "axis": [3], "momentum": 0.99, "epsilon": 0.001, "center": true, "scale": true, "beta_initializer": {"class_name": "Zeros", "config": {"dtype": "float32"}}, "gamma_initializer": {"class_name": "Ones", "config": {"dtype": "float32"}}, "moving_mean_initializer": {"class_name": "Zeros", "config": {"dtype": "float32"}}, "moving_variance_initializer": {"class_name": "Ones", "config": {"dtype": "float32"}}, "beta_regularizer": null, "gamma_regularizer": null, "beta_constraint": null, "gamma_constraint": null}, "inbound_nodes": [[["conv2d_12", 0, 0, {}]]]}, {"name": "lambda_12", "class_name": "Lambda", "config": {"name": "lambda_12", "trainable": true, "dtype": "float32", "function": ["4wEAAAAAAAAAAQAAAAYAAABTAAAAcyAAAAB8AHQAagF0AGoCagNkAXQAagR8AIMBFwCDAYMBFABT\nACkCTukBAAAAKQXaAnRm2gR0YW5o2gRtYXRo2gNsb2faA2V4cCkB2gF4qQByCAAAAPo5L2hvbWUv\nYjkyMDQwNS9naXQvdGVuc29yZmxvdy15b2xvdjQtdGZsaXRlL2NvcmUvY29tbW9uLnB52gg8bGFt\nYmRhPj4AAADzAAAAAA==\n", null, null], "function_type": "lambda", "module": "core.common", "output_shape": null, "output_shape_type": "raw", "output_shape_module": null, "arguments": {}}, "inbound_nodes": [[["batch_normalization_12", 0, 0, {}]]]}, {"name": "tf_op_layer_add_1", "class_name": "TensorFlowOpLayer", "config": {"name": "add_1", "trainable": true, "dtype": null, "node_def": {"name": "add_1", "op": "AddV2", "input": ["lambda_10/mul", "lambda_12/mul"], "attr": {"T": {"type": "DT_FLOAT"}}}, "constants": {}}, "inbound_nodes": [[["lambda_10", 0, 0, {}], ["lambda_12", 0, 0, {}]]]}, {"name": "conv2d_13", "class_name": "Conv2D", "config": {"name": "conv2d_13", "trainable": true, "dtype": "float32", "filters": 64, "kernel_size": [1, 1], "strides": [1, 1], "padding": "same", "data_format": "channels_last", "dilation_rate": [1, 1], "activation": "linear", "use_bias": false, "kernel_initializer": {"class_name": "RandomNormal", "config": {"mean": 0.0, "stddev": 0.01, "seed": null, "dtype": "float32"}}, "bias_initializer": {"class_name": "Constant", "config": {"value": 0.0, "dtype": "float32"}}, "kernel_regularizer": {"class_name": "L1L2", "config": {"l1": 0.0, "l2": 0.0005000000237487257}}, "bias_regularizer": null, "activity_regularizer": null, "kernel_constraint": null, "bias_constraint": null}, "inbound_nodes": [[["tf_op_layer_add_1", 0, 0, {}]]]}, {"name": "batch_normalization_13", "class_name": "BatchNormalization", "config": {"name": "batch_normalization_13", "trainable": true, "dtype": "float32", "axis": [3], "momentum": 0.99, "epsilon": 0.001, "center": true, "scale": true, "beta_initializer": {"class_name": "Zeros", "config": {"dtype": "float32"}}, "gamma_initializer": {"class_name": "Ones", "config": {"dtype": "float32"}}, "moving_mean_initializer": {"class_name": "Zeros", "config": {"dtype": "float32"}}, "moving_variance_initializer": {"class_name": "Ones", "config": {"dtype": "float32"}}, "beta_regularizer": null, "gamma_regularizer": null, "beta_constraint": null, "gamma_constraint": null}, "inbound_nodes": [[["conv2d_13", 0, 0, {}]]]}, {"name": "lambda_13", "class_name": "Lambda", "config": {"name": "lambda_13", "trainable": true, "dtype": "float32", "function": ["4wEAAAAAAAAAAQAAAAYAAABTAAAAcyAAAAB8AHQAagF0AGoCagNkAXQAagR8AIMBFwCDAYMBFABT\nACkCTukBAAAAKQXaAnRm2gR0YW5o2gRtYXRo2gNsb2faA2V4cCkB2gF4qQByCAAAAPo5L2hvbWUv\nYjkyMDQwNS9naXQvdGVuc29yZmxvdy15b2xvdjQtdGZsaXRlL2NvcmUvY29tbW9uLnB52gg8bGFt\nYmRhPj4AAADzAAAAAA==\n", null, null], "function_type": "lambda", "module": "core.common", "output_shape": null, "output_shape_type": "raw", "output_shape_module": null, "arguments": {}}, "inbound_nodes": [[["batch_normalization_13", 0, 0, {}]]]}, {"name": "conv2d_14", "class_name": "Conv2D", "config": {"name": "conv2d_14", "trainable": true, "dtype": "float32", "filters": 64, "kernel_size": [3, 3], "strides": [1, 1], "padding": "same", "data_format": "channels_last", "dilation_rate": [1, 1], "activation": "linear", "use_bias": false, "kernel_initializer": {"class_name": "RandomNormal", "config": {"mean": 0.0, "stddev": 0.01, "seed": null, "dtype": "float32"}}, "bias_initializer": {"class_name": "Constant", "config": {"value": 0.0, "dtype": "float32"}}, "kernel_regularizer": {"class_name": "L1L2", "config": {"l1": 0.0, "l2": 0.0005000000237487257}}, "bias_regularizer": null, "activity_regularizer": null, "kernel_constraint": null, "bias_constraint": null}, "inbound_nodes": [[["lambda_13", 0, 0, {}]]]}, {"name": "batch_normalization_14", "class_name": "BatchNormalization", "config": {"name": "batch_normalization_14", "trainable": true, "dtype": "float32", "axis": [3], "momentum": 0.99, "epsilon": 0.001, "center": true, "scale": true, "beta_initializer": {"class_name": "Zeros", "config": {"dtype": "float32"}}, "gamma_initializer": {"class_name": "Ones", "config": {"dtype": "float32"}}, "moving_mean_initializer": {"class_name": "Zeros", "config": {"dtype": "float32"}}, "moving_variance_initializer": {"class_name": "Ones", "config": {"dtype": "float32"}}, "beta_regularizer": null, "gamma_regularizer": null, "beta_constraint": null, "gamma_constraint": null}, "inbound_nodes": [[["conv2d_14", 0, 0, {}]]]}, {"name": "lambda_14", "class_name": "Lambda", "config": {"name": "lambda_14", "trainable": true, "dtype": "float32", "function": ["4wEAAAAAAAAAAQAAAAYAAABTAAAAcyAAAAB8AHQAagF0AGoCagNkAXQAagR8AIMBFwCDAYMBFABT\nACkCTukBAAAAKQXaAnRm2gR0YW5o2gRtYXRo2gNsb2faA2V4cCkB2gF4qQByCAAAAPo5L2hvbWUv\nYjkyMDQwNS9naXQvdGVuc29yZmxvdy15b2xvdjQtdGZsaXRlL2NvcmUvY29tbW9uLnB52gg8bGFt\nYmRhPj4AAADzAAAAAA==\n", null, null], "function_type": "lambda", "module": "core.common", "output_shape": null, "output_shape_type": "raw", "output_shape_module": null, "arguments": {}}, "inbound_nodes": [[["batch_normalization_14", 0, 0, {}]]]}, {"name": "tf_op_layer_add_2", "class_name": "TensorFlowOpLayer", "config": {"name": "add_2", "trainable": true, "dtype": null, "node_def": {"name": "add_2", "op": "AddV2", "input": ["add_1", "lambda_14/mul"], "attr": {"T": {"type": "DT_FLOAT"}}}, "constants": {}}, "inbound_nodes": [[["tf_op_layer_add_1", 0, 0, {}], ["lambda_14", 0, 0, {}]]]}, {"name": "conv2d_15", "class_name": "Conv2D", "config": {"name": "conv2d_15", "trainable": true, "dtype": "float32", "filters": 64, "kernel_size": [1, 1], "strides": [1, 1], "padding": "same", "data_format": "channels_last", "dilation_rate": [1, 1], "activation": "linear", "use_bias": false, "kernel_initializer": {"class_name": "RandomNormal", "config": {"mean": 0.0, "stddev": 0.01, "seed": null, "dtype": "float32"}}, "bias_initializer": {"class_name": "Constant", "config": {"value": 0.0, "dtype": "float32"}}, "kernel_regularizer": {"class_name": "L1L2", "config": {"l1": 0.0, "l2": 0.0005000000237487257}}, "bias_regularizer": null, "activity_regularizer": null, "kernel_constraint": null, "bias_constraint": null}, "inbound_nodes": [[["tf_op_layer_add_2", 0, 0, {}]]]}, {"name": "conv2d_9", "class_name": "Conv2D", "config": {"name": "conv2d_9", "trainable": true, "dtype": "float32", "filters": 64, "kernel_size": [1, 1], "strides": [1, 1], "padding": "same", "data_format": "channels_last", "dilation_rate": [1, 1], "activation": "linear", "use_bias": false, "kernel_initializer": {"class_name": "RandomNormal", "config": {"mean": 0.0, "stddev": 0.01, "seed": null, "dtype": "float32"}}, "bias_initializer": {"class_name": "Constant", "config": {"value": 0.0, "dtype": "float32"}}, "kernel_regularizer": {"class_name": "L1L2", "config": {"l1": 0.0, "l2": 0.0005000000237487257}}, "bias_regularizer": null, "activity_regularizer": null, "kernel_constraint": null, "bias_constraint": null}, "inbound_nodes": [[["lambda_8", 0, 0, {}]]]}, {"name": "batch_normalization_15", "class_name": "BatchNormalization", "config": {"name": "batch_normalization_15", "trainable": true, "dtype": "float32", "axis": [3], "momentum": 0.99, "epsilon": 0.001, "center": true, "scale": true, "beta_initializer": {"class_name": "Zeros", "config": {"dtype": "float32"}}, "gamma_initializer": {"class_name": "Ones", "config": {"dtype": "float32"}}, "moving_mean_initializer": {"class_name": "Zeros", "config": {"dtype": "float32"}}, "moving_variance_initializer": {"class_name": "Ones", "config": {"dtype": "float32"}}, "beta_regularizer": null, "gamma_regularizer": null, "beta_constraint": null, "gamma_constraint": null}, "inbound_nodes": [[["conv2d_15", 0, 0, {}]]]}, {"name": "batch_normalization_9", "class_name": "BatchNormalization", "config": {"name": "batch_normalization_9", "trainable": true, "dtype": "float32", "axis": [3], "momentum": 0.99, "epsilon": 0.001, "center": true, "scale": true, "beta_initializer": {"class_name": "Zeros", "config": {"dtype": "float32"}}, "gamma_initializer": {"class_name": "Ones", "config": {"dtype": "float32"}}, "moving_mean_initializer": {"class_name": "Zeros", "config": {"dtype": "float32"}}, "moving_variance_initializer": {"class_name": "Ones", "config": {"dtype": "float32"}}, "beta_regularizer": null, "gamma_regularizer": null, "beta_constraint": null, "gamma_constraint": null}, "inbound_nodes": [[["conv2d_9", 0, 0, {}]]]}, {"name": "lambda_15", "class_name": "Lambda", "config": {"name": "lambda_15", "trainable": true, "dtype": "float32", "function": ["4wEAAAAAAAAAAQAAAAYAAABTAAAAcyAAAAB8AHQAagF0AGoCagNkAXQAagR8AIMBFwCDAYMBFABT\nACkCTukBAAAAKQXaAnRm2gR0YW5o2gRtYXRo2gNsb2faA2V4cCkB2gF4qQByCAAAAPo5L2hvbWUv\nYjkyMDQwNS9naXQvdGVuc29yZmxvdy15b2xvdjQtdGZsaXRlL2NvcmUvY29tbW9uLnB52gg8bGFt\nYmRhPj4AAADzAAAAAA==\n", null, null], "function_type": "lambda", "module": "core.common", "output_shape": null, "output_shape_type": "raw", "output_shape_module": null, "arguments": {}}, "inbound_nodes": [[["batch_normalization_15", 0, 0, {}]]]}, {"name": "lambda_9", "class_name": "Lambda", "config": {"name": "lambda_9", "trainable": true, "dtype": "float32", "function": ["4wEAAAAAAAAAAQAAAAYAAABTAAAAcyAAAAB8AHQAagF0AGoCagNkAXQAagR8AIMBFwCDAYMBFABT\nACkCTukBAAAAKQXaAnRm2gR0YW5o2gRtYXRo2gNsb2faA2V4cCkB2gF4qQByCAAAAPo5L2hvbWUv\nYjkyMDQwNS9naXQvdGVuc29yZmxvdy15b2xvdjQtdGZsaXRlL2NvcmUvY29tbW9uLnB52gg8bGFt\nYmRhPj4AAADzAAAAAA==\n", null, null], "function_type": "lambda", "module": "core.common", "output_shape": null, "output_shape_type": "raw", "output_shape_module": null, "arguments": {}}, "inbound_nodes": [[["batch_normalization_9", 0, 0, {}]]]}, {"name": "tf_op_layer_concat_1", "class_name": "TensorFlowOpLayer", "config": {"name": "concat_1", "trainable": true, "dtype": null, "node_def": {"name": "concat_1", "op": "ConcatV2", "input": ["lambda_15/mul", "lambda_9/mul", "concat_1/axis"], "attr": {"Tidx": {"type": "DT_INT32"}, "T": {"type": "DT_FLOAT"}, "N": {"i": "2"}}}, "constants": {"2": -1}}, "inbound_nodes": [[["lambda_15", 0, 0, {}], ["lambda_9", 0, 0, {}]]]}, {"name": "conv2d_16", "class_name": "Conv2D", "config": {"name": "conv2d_16", "trainable": true, "dtype": "float32", "filters": 128, "kernel_size": [1, 1], "strides": [1, 1], "padding": "same", "data_format": "channels_last", "dilation_rate": [1, 1], "activation": "linear", "use_bias": false, "kernel_initializer": {"class_name": "RandomNormal", "config": {"mean": 0.0, "stddev": 0.01, "seed": null, "dtype": "float32"}}, "bias_initializer": {"class_name": "Constant", "config": {"value": 0.0, "dtype": "float32"}}, "kernel_regularizer": {"class_name": "L1L2", "config": {"l1": 0.0, "l2": 0.0005000000237487257}}, "bias_regularizer": null, "activity_regularizer": null, "kernel_constraint": null, "bias_constraint": null}, "inbound_nodes": [[["tf_op_layer_concat_1", 0, 0, {}]]]}, {"name": "batch_normalization_16", "class_name": "BatchNormalization", "config": {"name": "batch_normalization_16", "trainable": true, "dtype": "float32", "axis": [3], "momentum": 0.99, "epsilon": 0.001, "center": true, "scale": true, "beta_initializer": {"class_name": "Zeros", "config": {"dtype": "float32"}}, "gamma_initializer": {"class_name": "Ones", "config": {"dtype": "float32"}}, "moving_mean_initializer": {"class_name": "Zeros", "config": {"dtype": "float32"}}, "moving_variance_initializer": {"class_name": "Ones", "config": {"dtype": "float32"}}, "beta_regularizer": null, "gamma_regularizer": null, "beta_constraint": null, "gamma_constraint": null}, "inbound_nodes": [[["conv2d_16", 0, 0, {}]]]}, {"name": "lambda_16", "class_name": "Lambda", "config": {"name": "lambda_16", "trainable": true, "dtype": "float32", "function": ["4wEAAAAAAAAAAQAAAAYAAABTAAAAcyAAAAB8AHQAagF0AGoCagNkAXQAagR8AIMBFwCDAYMBFABT\nACkCTukBAAAAKQXaAnRm2gR0YW5o2gRtYXRo2gNsb2faA2V4cCkB2gF4qQByCAAAAPo5L2hvbWUv\nYjkyMDQwNS9naXQvdGVuc29yZmxvdy15b2xvdjQtdGZsaXRlL2NvcmUvY29tbW9uLnB52gg8bGFt\nYmRhPj4AAADzAAAAAA==\n", null, null], "function_type": "lambda", "module": "core.common", "output_shape": null, "output_shape_type": "raw", "output_shape_module": null, "arguments": {}}, "inbound_nodes": [[["batch_normalization_16", 0, 0, {}]]]}, {"name": "zero_padding2d_2", "class_name": "ZeroPadding2D", "config": {"name": "zero_padding2d_2", "trainable": true, "dtype": "float32", "padding": [[1, 0], [1, 0]], "data_format": "channels_last"}, "inbound_nodes": [[["lambda_16", 0, 0, {}]]]}, {"name": "conv2d_17", "class_name": "Conv2D", "config": {"name": "conv2d_17", "trainable": true, "dtype": "float32", "filters": 256, "kernel_size": [3, 3], "strides": [2, 2], "padding": "valid", "data_format": "channels_last", "dilation_rate": [1, 1], "activation": "linear", "use_bias": false, "kernel_initializer": {"class_name": "RandomNormal", "config": {"mean": 0.0, "stddev": 0.01, "seed": null, "dtype": "float32"}}, "bias_initializer": {"class_name": "Constant", "config": {"value": 0.0, "dtype": "float32"}}, "kernel_regularizer": {"class_name": "L1L2", "config": {"l1": 0.0, "l2": 0.0005000000237487257}}, "bias_regularizer": null, "activity_regularizer": null, "kernel_constraint": null, "bias_constraint": null}, "inbound_nodes": [[["zero_padding2d_2", 0, 0, {}]]]}, {"name": "batch_normalization_17", "class_name": "BatchNormalization", "config": {"name": "batch_normalization_17", "trainable": true, "dtype": "float32", "axis": [3], "momentum": 0.99, "epsilon": 0.001, "center": true, "scale": true, "beta_initializer": {"class_name": "Zeros", "config": {"dtype": "float32"}}, "gamma_initializer": {"class_name": "Ones", "config": {"dtype": "float32"}}, "moving_mean_initializer": {"class_name": "Zeros", "config": {"dtype": "float32"}}, "moving_variance_initializer": {"class_name": "Ones", "config": {"dtype": "float32"}}, "beta_regularizer": null, "gamma_regularizer": null, "beta_constraint": null, "gamma_constraint": null}, "inbound_nodes": [[["conv2d_17", 0, 0, {}]]]}, {"name": "lambda_17", "class_name": "Lambda", "config": {"name": "lambda_17", "trainable": true, "dtype": "float32", "function": ["4wEAAAAAAAAAAQAAAAYAAABTAAAAcyAAAAB8AHQAagF0AGoCagNkAXQAagR8AIMBFwCDAYMBFABT\nACkCTukBAAAAKQXaAnRm2gR0YW5o2gRtYXRo2gNsb2faA2V4cCkB2gF4qQByCAAAAPo5L2hvbWUv\nYjkyMDQwNS9naXQvdGVuc29yZmxvdy15b2xvdjQtdGZsaXRlL2NvcmUvY29tbW9uLnB52gg8bGFt\nYmRhPj4AAADzAAAAAA==\n", null, null], "function_type": "lambda", "module": "core.common", "output_shape": null, "output_shape_type": "raw", "output_shape_module": null, "arguments": {}}, "inbound_nodes": [[["batch_normalization_17", 0, 0, {}]]]}, {"name": "conv2d_19", "class_name": "Conv2D", "config": {"name": "conv2d_19", "trainable": true, "dtype": "float32", "filters": 128, "kernel_size": [1, 1], "strides": [1, 1], "padding": "same", "data_format": "channels_last", "dilation_rate": [1, 1], "activation": "linear", "use_bias": false, "kernel_initializer": {"class_name": "RandomNormal", "config": {"mean": 0.0, "stddev": 0.01, "seed": null, "dtype": "float32"}}, "bias_initializer": {"class_name": "Constant", "config": {"value": 0.0, "dtype": "float32"}}, "kernel_regularizer": {"class_name": "L1L2", "config": {"l1": 0.0, "l2": 0.0005000000237487257}}, "bias_regularizer": null, "activity_regularizer": null, "kernel_constraint": null, "bias_constraint": null}, "inbound_nodes": [[["lambda_17", 0, 0, {}]]]}, {"name": "batch_normalization_19", "class_name": "BatchNormalization", "config": {"name": "batch_normalization_19", "trainable": true, "dtype": "float32", "axis": [3], "momentum": 0.99, "epsilon": 0.001, "center": true, "scale": true, "beta_initializer": {"class_name": "Zeros", "config": {"dtype": "float32"}}, "gamma_initializer": {"class_name": "Ones", "config": {"dtype": "float32"}}, "moving_mean_initializer": {"class_name": "Zeros", "config": {"dtype": "float32"}}, "moving_variance_initializer": {"class_name": "Ones", "config": {"dtype": "float32"}}, "beta_regularizer": null, "gamma_regularizer": null, "beta_constraint": null, "gamma_constraint": null}, "inbound_nodes": [[["conv2d_19", 0, 0, {}]]]}, {"name": "lambda_19", "class_name": "Lambda", "config": {"name": "lambda_19", "trainable": true, "dtype": "float32", "function": ["4wEAAAAAAAAAAQAAAAYAAABTAAAAcyAAAAB8AHQAagF0AGoCagNkAXQAagR8AIMBFwCDAYMBFABT\nACkCTukBAAAAKQXaAnRm2gR0YW5o2gRtYXRo2gNsb2faA2V4cCkB2gF4qQByCAAAAPo5L2hvbWUv\nYjkyMDQwNS9naXQvdGVuc29yZmxvdy15b2xvdjQtdGZsaXRlL2NvcmUvY29tbW9uLnB52gg8bGFt\nYmRhPj4AAADzAAAAAA==\n", null, null], "function_type": "lambda", "module": "core.common", "output_shape": null, "output_shape_type": "raw", "output_shape_module": null, "arguments": {}}, "inbound_nodes": [[["batch_normalization_19", 0, 0, {}]]]}, {"name": "conv2d_20", "class_name": "Conv2D", "config": {"name": "conv2d_20", "trainable": true, "dtype": "float32", "filters": 128, "kernel_size": [1, 1], "strides": [1, 1], "padding": "same", "data_format": "channels_last", "dilation_rate": [1, 1], "activation": "linear", "use_bias": false, "kernel_initializer": {"class_name": "RandomNormal", "config": {"mean": 0.0, "stddev": 0.01, "seed": null, "dtype": "float32"}}, "bias_initializer": {"class_name": "Constant", "config": {"value": 0.0, "dtype": "float32"}}, "kernel_regularizer": {"class_name": "L1L2", "config": {"l1": 0.0, "l2": 0.0005000000237487257}}, "bias_regularizer": null, "activity_regularizer": null, "kernel_constraint": null, "bias_constraint": null}, "inbound_nodes": [[["lambda_19", 0, 0, {}]]]}, {"name": "batch_normalization_20", "class_name": "BatchNormalization", "config": {"name": "batch_normalization_20", "trainable": true, "dtype": "float32", "axis": [3], "momentum": 0.99, "epsilon": 0.001, "center": true, "scale": true, "beta_initializer": {"class_name": "Zeros", "config": {"dtype": "float32"}}, "gamma_initializer": {"class_name": "Ones", "config": {"dtype": "float32"}}, "moving_mean_initializer": {"class_name": "Zeros", "config": {"dtype": "float32"}}, "moving_variance_initializer": {"class_name": "Ones", "config": {"dtype": "float32"}}, "beta_regularizer": null, "gamma_regularizer": null, "beta_constraint": null, "gamma_constraint": null}, "inbound_nodes": [[["conv2d_20", 0, 0, {}]]]}, {"name": "lambda_20", "class_name": "Lambda", "config": {"name": "lambda_20", "trainable": true, "dtype": "float32", "function": ["4wEAAAAAAAAAAQAAAAYAAABTAAAAcyAAAAB8AHQAagF0AGoCagNkAXQAagR8AIMBFwCDAYMBFABT\nACkCTukBAAAAKQXaAnRm2gR0YW5o2gRtYXRo2gNsb2faA2V4cCkB2gF4qQByCAAAAPo5L2hvbWUv\nYjkyMDQwNS9naXQvdGVuc29yZmxvdy15b2xvdjQtdGZsaXRlL2NvcmUvY29tbW9uLnB52gg8bGFt\nYmRhPj4AAADzAAAAAA==\n", null, null], "function_type": "lambda", "module": "core.common", "output_shape": null, "output_shape_type": "raw", "output_shape_module": null, "arguments": {}}, "inbound_nodes": [[["batch_normalization_20", 0, 0, {}]]]}, {"name": "conv2d_21", "class_name": "Conv2D", "config": {"name": "conv2d_21", "trainable": true, "dtype": "float32", "filters": 128, "kernel_size": [3, 3], "strides": [1, 1], "padding": "same", "data_format": "channels_last", "dilation_rate": [1, 1], "activation": "linear", "use_bias": false, "kernel_initializer": {"class_name": "RandomNormal", "config": {"mean": 0.0, "stddev": 0.01, "seed": null, "dtype": "float32"}}, "bias_initializer": {"class_name": "Constant", "config": {"value": 0.0, "dtype": "float32"}}, "kernel_regularizer": {"class_name": "L1L2", "config": {"l1": 0.0, "l2": 0.0005000000237487257}}, "bias_regularizer": null, "activity_regularizer": null, "kernel_constraint": null, "bias_constraint": null}, "inbound_nodes": [[["lambda_20", 0, 0, {}]]]}, {"name": "batch_normalization_21", "class_name": "BatchNormalization", "config": {"name": "batch_normalization_21", "trainable": true, "dtype": "float32", "axis": [3], "momentum": 0.99, "epsilon": 0.001, "center": true, "scale": true, "beta_initializer": {"class_name": "Zeros", "config": {"dtype": "float32"}}, "gamma_initializer": {"class_name": "Ones", "config": {"dtype": "float32"}}, "moving_mean_initializer": {"class_name": "Zeros", "config": {"dtype": "float32"}}, "moving_variance_initializer": {"class_name": "Ones", "config": {"dtype": "float32"}}, "beta_regularizer": null, "gamma_regularizer": null, "beta_constraint": null, "gamma_constraint": null}, "inbound_nodes": [[["conv2d_21", 0, 0, {}]]]}, {"name": "lambda_21", "class_name": "Lambda", "config": {"name": "lambda_21", "trainable": true, "dtype": "float32", "function": ["4wEAAAAAAAAAAQAAAAYAAABTAAAAcyAAAAB8AHQAagF0AGoCagNkAXQAagR8AIMBFwCDAYMBFABT\nACkCTukBAAAAKQXaAnRm2gR0YW5o2gRtYXRo2gNsb2faA2V4cCkB2gF4qQByCAAAAPo5L2hvbWUv\nYjkyMDQwNS9naXQvdGVuc29yZmxvdy15b2xvdjQtdGZsaXRlL2NvcmUvY29tbW9uLnB52gg8bGFt\nYmRhPj4AAADzAAAAAA==\n", null, null], "function_type": "lambda", "module": "core.common", "output_shape": null, "output_shape_type": "raw", "output_shape_module": null, "arguments": {}}, "inbound_nodes": [[["batch_normalization_21", 0, 0, {}]]]}, {"name": "tf_op_layer_add_3", "class_name": "TensorFlowOpLayer", "config": {"name": "add_3", "trainable": true, "dtype": null, "node_def": {"name": "add_3", "op": "AddV2", "input": ["lambda_19/mul", "lambda_21/mul"], "attr": {"T": {"type": "DT_FLOAT"}}}, "constants": {}}, "inbound_nodes": [[["lambda_19", 0, 0, {}], ["lambda_21", 0, 0, {}]]]}, {"name": "conv2d_22", "class_name": "Conv2D", "config": {"name": "conv2d_22", "trainable": true, "dtype": "float32", "filters": 128, "kernel_size": [1, 1], "strides": [1, 1], "padding": "same", "data_format": "channels_last", "dilation_rate": [1, 1], "activation": "linear", "use_bias": false, "kernel_initializer": {"class_name": "RandomNormal", "config": {"mean": 0.0, "stddev": 0.01, "seed": null, "dtype": "float32"}}, "bias_initializer": {"class_name": "Constant", "config": {"value": 0.0, "dtype": "float32"}}, "kernel_regularizer": {"class_name": "L1L2", "config": {"l1": 0.0, "l2": 0.0005000000237487257}}, "bias_regularizer": null, "activity_regularizer": null, "kernel_constraint": null, "bias_constraint": null}, "inbound_nodes": [[["tf_op_layer_add_3", 0, 0, {}]]]}, {"name": "batch_normalization_22", "class_name": "BatchNormalization", "config": {"name": "batch_normalization_22", "trainable": true, "dtype": "float32", "axis": [3], "momentum": 0.99, "epsilon": 0.001, "center": true, "scale": true, "beta_initializer": {"class_name": "Zeros", "config": {"dtype": "float32"}}, "gamma_initializer": {"class_name": "Ones", "config": {"dtype": "float32"}}, "moving_mean_initializer": {"class_name": "Zeros", "config": {"dtype": "float32"}}, "moving_variance_initializer": {"class_name": "Ones", "config": {"dtype": "float32"}}, "beta_regularizer": null, "gamma_regularizer": null, "beta_constraint": null, "gamma_constraint": null}, "inbound_nodes": [[["conv2d_22", 0, 0, {}]]]}, {"name": "lambda_22", "class_name": "Lambda", "config": {"name": "lambda_22", "trainable": true, "dtype": "float32", "function": ["4wEAAAAAAAAAAQAAAAYAAABTAAAAcyAAAAB8AHQAagF0AGoCagNkAXQAagR8AIMBFwCDAYMBFABT\nACkCTukBAAAAKQXaAnRm2gR0YW5o2gRtYXRo2gNsb2faA2V4cCkB2gF4qQByCAAAAPo5L2hvbWUv\nYjkyMDQwNS9naXQvdGVuc29yZmxvdy15b2xvdjQtdGZsaXRlL2NvcmUvY29tbW9uLnB52gg8bGFt\nYmRhPj4AAADzAAAAAA==\n", null, null], "function_type": "lambda", "module": "core.common", "output_shape": null, "output_shape_type": "raw", "output_shape_module": null, "arguments": {}}, "inbound_nodes": [[["batch_normalization_22", 0, 0, {}]]]}, {"name": "conv2d_23", "class_name": "Conv2D", "config": {"name": "conv2d_23", "trainable": true, "dtype": "float32", "filters": 128, "kernel_size": [3, 3], "strides": [1, 1], "padding": "same", "data_format": "channels_last", "dilation_rate": [1, 1], "activation": "linear", "use_bias": false, "kernel_initializer": {"class_name": "RandomNormal", "config": {"mean": 0.0, "stddev": 0.01, "seed": null, "dtype": "float32"}}, "bias_initializer": {"class_name": "Constant", "config": {"value": 0.0, "dtype": "float32"}}, "kernel_regularizer": {"class_name": "L1L2", "config": {"l1": 0.0, "l2": 0.0005000000237487257}}, "bias_regularizer": null, "activity_regularizer": null, "kernel_constraint": null, "bias_constraint": null}, "inbound_nodes": [[["lambda_22", 0, 0, {}]]]}, {"name": "batch_normalization_23", "class_name": "BatchNormalization", "config": {"name": "batch_normalization_23", "trainable": true, "dtype": "float32", "axis": [3], "momentum": 0.99, "epsilon": 0.001, "center": true, "scale": true, "beta_initializer": {"class_name": "Zeros", "config": {"dtype": "float32"}}, "gamma_initializer": {"class_name": "Ones", "config": {"dtype": "float32"}}, "moving_mean_initializer": {"class_name": "Zeros", "config": {"dtype": "float32"}}, "moving_variance_initializer": {"class_name": "Ones", "config": {"dtype": "float32"}}, "beta_regularizer": null, "gamma_regularizer": null, "beta_constraint": null, "gamma_constraint": null}, "inbound_nodes": [[["conv2d_23", 0, 0, {}]]]}, {"name": "lambda_23", "class_name": "Lambda", "config": {"name": "lambda_23", "trainable": true, "dtype": "float32", "function": ["4wEAAAAAAAAAAQAAAAYAAABTAAAAcyAAAAB8AHQAagF0AGoCagNkAXQAagR8AIMBFwCDAYMBFABT\nACkCTukBAAAAKQXaAnRm2gR0YW5o2gRtYXRo2gNsb2faA2V4cCkB2gF4qQByCAAAAPo5L2hvbWUv\nYjkyMDQwNS9naXQvdGVuc29yZmxvdy15b2xvdjQtdGZsaXRlL2NvcmUvY29tbW9uLnB52gg8bGFt\nYmRhPj4AAADzAAAAAA==\n", null, null], "function_type": "lambda", "module": "core.common", "output_shape": null, "output_shape_type": "raw", "output_shape_module": null, "arguments": {}}, "inbound_nodes": [[["batch_normalization_23", 0, 0, {}]]]}, {"name": "tf_op_layer_add_4", "class_name": "TensorFlowOpLayer", "config": {"name": "add_4", "trainable": true, "dtype": null, "node_def": {"name": "add_4", "op": "AddV2", "input": ["add_3", "lambda_23/mul"], "attr": {"T": {"type": "DT_FLOAT"}}}, "constants": {}}, "inbound_nodes": [[["tf_op_layer_add_3", 0, 0, {}], ["lambda_23", 0, 0, {}]]]}, {"name": "conv2d_24", "class_name": "Conv2D", "config": {"name": "conv2d_24", "trainable": true, "dtype": "float32", "filters": 128, "kernel_size": [1, 1], "strides": [1, 1], "padding": "same", "data_format": "channels_last", "dilation_rate": [1, 1], "activation": "linear", "use_bias": false, "kernel_initializer": {"class_name": "RandomNormal", "config": {"mean": 0.0, "stddev": 0.01, "seed": null, "dtype": "float32"}}, "bias_initializer": {"class_name": "Constant", "config": {"value": 0.0, "dtype": "float32"}}, "kernel_regularizer": {"class_name": "L1L2", "config": {"l1": 0.0, "l2": 0.0005000000237487257}}, "bias_regularizer": null, "activity_regularizer": null, "kernel_constraint": null, "bias_constraint": null}, "inbound_nodes": [[["tf_op_layer_add_4", 0, 0, {}]]]}, {"name": "batch_normalization_24", "class_name": "BatchNormalization", "config": {"name": "batch_normalization_24", "trainable": true, "dtype": "float32", "axis": [3], "momentum": 0.99, "epsilon": 0.001, "center": true, "scale": true, "beta_initializer": {"class_name": "Zeros", "config": {"dtype": "float32"}}, "gamma_initializer": {"class_name": "Ones", "config": {"dtype": "float32"}}, "moving_mean_initializer": {"class_name": "Zeros", "config": {"dtype": "float32"}}, "moving_variance_initializer": {"class_name": "Ones", "config": {"dtype": "float32"}}, "beta_regularizer": null, "gamma_regularizer": null, "beta_constraint": null, "gamma_constraint": null}, "inbound_nodes": [[["conv2d_24", 0, 0, {}]]]}, {"name": "lambda_24", "class_name": "Lambda", "config": {"name": "lambda_24", "trainable": true, "dtype": "float32", "function": ["4wEAAAAAAAAAAQAAAAYAAABTAAAAcyAAAAB8AHQAagF0AGoCagNkAXQAagR8AIMBFwCDAYMBFABT\nACkCTukBAAAAKQXaAnRm2gR0YW5o2gRtYXRo2gNsb2faA2V4cCkB2gF4qQByCAAAAPo5L2hvbWUv\nYjkyMDQwNS9naXQvdGVuc29yZmxvdy15b2xvdjQtdGZsaXRlL2NvcmUvY29tbW9uLnB52gg8bGFt\nYmRhPj4AAADzAAAAAA==\n", null, null], "function_type": "lambda", "module": "core.common", "output_shape": null, "output_shape_type": "raw", "output_shape_module": null, "arguments": {}}, "inbound_nodes": [[["batch_normalization_24", 0, 0, {}]]]}, {"name": "conv2d_25", "class_name": "Conv2D", "config": {"name": "conv2d_25", "trainable": true, "dtype": "float32", "filters": 128, "kernel_size": [3, 3], "strides": [1, 1], "padding": "same", "data_format": "channels_last", "dilation_rate": [1, 1], "activation": "linear", "use_bias": false, "kernel_initializer": {"class_name": "RandomNormal", "config": {"mean": 0.0, "stddev": 0.01, "seed": null, "dtype": "float32"}}, "bias_initializer": {"class_name": "Constant", "config": {"value": 0.0, "dtype": "float32"}}, "kernel_regularizer": {"class_name": "L1L2", "config": {"l1": 0.0, "l2": 0.0005000000237487257}}, "bias_regularizer": null, "activity_regularizer": null, "kernel_constraint": null, "bias_constraint": null}, "inbound_nodes": [[["lambda_24", 0, 0, {}]]]}, {"name": "batch_normalization_25", "class_name": "BatchNormalization", "config": {"name": "batch_normalization_25", "trainable": true, "dtype": "float32", "axis": [3], "momentum": 0.99, "epsilon": 0.001, "center": true, "scale": true, "beta_initializer": {"class_name": "Zeros", "config": {"dtype": "float32"}}, "gamma_initializer": {"class_name": "Ones", "config": {"dtype": "float32"}}, "moving_mean_initializer": {"class_name": "Zeros", "config": {"dtype": "float32"}}, "moving_variance_initializer": {"class_name": "Ones", "config": {"dtype": "float32"}}, "beta_regularizer": null, "gamma_regularizer": null, "beta_constraint": null, "gamma_constraint": null}, "inbound_nodes": [[["conv2d_25", 0, 0, {}]]]}, {"name": "lambda_25", "class_name": "Lambda", "config": {"name": "lambda_25", "trainable": true, "dtype": "float32", "function": ["4wEAAAAAAAAAAQAAAAYAAABTAAAAcyAAAAB8AHQAagF0AGoCagNkAXQAagR8AIMBFwCDAYMBFABT\nACkCTukBAAAAKQXaAnRm2gR0YW5o2gRtYXRo2gNsb2faA2V4cCkB2gF4qQByCAAAAPo5L2hvbWUv\nYjkyMDQwNS9naXQvdGVuc29yZmxvdy15b2xvdjQtdGZsaXRlL2NvcmUvY29tbW9uLnB52gg8bGFt\nYmRhPj4AAADzAAAAAA==\n", null, null], "function_type": "lambda", "module": "core.common", "output_shape": null, "output_shape_type": "raw", "output_shape_module": null, "arguments": {}}, "inbound_nodes": [[["batch_normalization_25", 0, 0, {}]]]}, {"name": "tf_op_layer_add_5", "class_name": "TensorFlowOpLayer", "config": {"name": "add_5", "trainable": true, "dtype": null, "node_def": {"name": "add_5", "op": "AddV2", "input": ["add_4", "lambda_25/mul"], "attr": {"T": {"type": "DT_FLOAT"}}}, "constants": {}}, "inbound_nodes": [[["tf_op_layer_add_4", 0, 0, {}], ["lambda_25", 0, 0, {}]]]}, {"name": "conv2d_26", "class_name": "Conv2D", "config": {"name": "conv2d_26", "trainable": true, "dtype": "float32", "filters": 128, "kernel_size": [1, 1], "strides": [1, 1], "padding": "same", "data_format": "channels_last", "dilation_rate": [1, 1], "activation": "linear", "use_bias": false, "kernel_initializer": {"class_name": "RandomNormal", "config": {"mean": 0.0, "stddev": 0.01, "seed": null, "dtype": "float32"}}, "bias_initializer": {"class_name": "Constant", "config": {"value": 0.0, "dtype": "float32"}}, "kernel_regularizer": {"class_name": "L1L2", "config": {"l1": 0.0, "l2": 0.0005000000237487257}}, "bias_regularizer": null, "activity_regularizer": null, "kernel_constraint": null, "bias_constraint": null}, "inbound_nodes": [[["tf_op_layer_add_5", 0, 0, {}]]]}, {"name": "batch_normalization_26", "class_name": "BatchNormalization", "config": {"name": "batch_normalization_26", "trainable": true, "dtype": "float32", "axis": [3], "momentum": 0.99, "epsilon": 0.001, "center": true, "scale": true, "beta_initializer": {"class_name": "Zeros", "config": {"dtype": "float32"}}, "gamma_initializer": {"class_name": "Ones", "config": {"dtype": "float32"}}, "moving_mean_initializer": {"class_name": "Zeros", "config": {"dtype": "float32"}}, "moving_variance_initializer": {"class_name": "Ones", "config": {"dtype": "float32"}}, "beta_regularizer": null, "gamma_regularizer": null, "beta_constraint": null, "gamma_constraint": null}, "inbound_nodes": [[["conv2d_26", 0, 0, {}]]]}, {"name": "lambda_26", "class_name": "Lambda", "config": {"name": "lambda_26", "trainable": true, "dtype": "float32", "function": ["4wEAAAAAAAAAAQAAAAYAAABTAAAAcyAAAAB8AHQAagF0AGoCagNkAXQAagR8AIMBFwCDAYMBFABT\nACkCTukBAAAAKQXaAnRm2gR0YW5o2gRtYXRo2gNsb2faA2V4cCkB2gF4qQByCAAAAPo5L2hvbWUv\nYjkyMDQwNS9naXQvdGVuc29yZmxvdy15b2xvdjQtdGZsaXRlL2NvcmUvY29tbW9uLnB52gg8bGFt\nYmRhPj4AAADzAAAAAA==\n", null, null], "function_type": "lambda", "module": "core.common", "output_shape": null, "output_shape_type": "raw", "output_shape_module": null, "arguments": {}}, "inbound_nodes": [[["batch_normalization_26", 0, 0, {}]]]}, {"name": "conv2d_27", "class_name": "Conv2D", "config": {"name": "conv2d_27", "trainable": true, "dtype": "float32", "filters": 128, "kernel_size": [3, 3], "strides": [1, 1], "padding": "same", "data_format": "channels_last", "dilation_rate": [1, 1], "activation": "linear", "use_bias": false, "kernel_initializer": {"class_name": "RandomNormal", "config": {"mean": 0.0, "stddev": 0.01, "seed": null, "dtype": "float32"}}, "bias_initializer": {"class_name": "Constant", "config": {"value": 0.0, "dtype": "float32"}}, "kernel_regularizer": {"class_name": "L1L2", "config": {"l1": 0.0, "l2": 0.0005000000237487257}}, "bias_regularizer": null, "activity_regularizer": null, "kernel_constraint": null, "bias_constraint": null}, "inbound_nodes": [[["lambda_26", 0, 0, {}]]]}, {"name": "batch_normalization_27", "class_name": "BatchNormalization", "config": {"name": "batch_normalization_27", "trainable": true, "dtype": "float32", "axis": [3], "momentum": 0.99, "epsilon": 0.001, "center": true, "scale": true, "beta_initializer": {"class_name": "Zeros", "config": {"dtype": "float32"}}, "gamma_initializer": {"class_name": "Ones", "config": {"dtype": "float32"}}, "moving_mean_initializer": {"class_name": "Zeros", "config": {"dtype": "float32"}}, "moving_variance_initializer": {"class_name": "Ones", "config": {"dtype": "float32"}}, "beta_regularizer": null, "gamma_regularizer": null, "beta_constraint": null, "gamma_constraint": null}, "inbound_nodes": [[["conv2d_27", 0, 0, {}]]]}, {"name": "lambda_27", "class_name": "Lambda", "config": {"name": "lambda_27", "trainable": true, "dtype": "float32", "function": ["4wEAAAAAAAAAAQAAAAYAAABTAAAAcyAAAAB8AHQAagF0AGoCagNkAXQAagR8AIMBFwCDAYMBFABT\nACkCTukBAAAAKQXaAnRm2gR0YW5o2gRtYXRo2gNsb2faA2V4cCkB2gF4qQByCAAAAPo5L2hvbWUv\nYjkyMDQwNS9naXQvdGVuc29yZmxvdy15b2xvdjQtdGZsaXRlL2NvcmUvY29tbW9uLnB52gg8bGFt\nYmRhPj4AAADzAAAAAA==\n", null, null], "function_type": "lambda", "module": "core.common", "output_shape": null, "output_shape_type": "raw", "output_shape_module": null, "arguments": {}}, "inbound_nodes": [[["batch_normalization_27", 0, 0, {}]]]}, {"name": "tf_op_layer_add_6", "class_name": "TensorFlowOpLayer", "config": {"name": "add_6", "trainable": true, "dtype": null, "node_def": {"name": "add_6", "op": "AddV2", "input": ["add_5", "lambda_27/mul"], "attr": {"T": {"type": "DT_FLOAT"}}}, "constants": {}}, "inbound_nodes": [[["tf_op_layer_add_5", 0, 0, {}], ["lambda_27", 0, 0, {}]]]}, {"name": "conv2d_28", "class_name": "Conv2D", "config": {"name": "conv2d_28", "trainable": true, "dtype": "float32", "filters": 128, "kernel_size": [1, 1], "strides": [1, 1], "padding": "same", "data_format": "channels_last", "dilation_rate": [1, 1], "activation": "linear", "use_bias": false, "kernel_initializer": {"class_name": "RandomNormal", "config": {"mean": 0.0, "stddev": 0.01, "seed": null, "dtype": "float32"}}, "bias_initializer": {"class_name": "Constant", "config": {"value": 0.0, "dtype": "float32"}}, "kernel_regularizer": {"class_name": "L1L2", "config": {"l1": 0.0, "l2": 0.0005000000237487257}}, "bias_regularizer": null, "activity_regularizer": null, "kernel_constraint": null, "bias_constraint": null}, "inbound_nodes": [[["tf_op_layer_add_6", 0, 0, {}]]]}, {"name": "batch_normalization_28", "class_name": "BatchNormalization", "config": {"name": "batch_normalization_28", "trainable": true, "dtype": "float32", "axis": [3], "momentum": 0.99, "epsilon": 0.001, "center": true, "scale": true, "beta_initializer": {"class_name": "Zeros", "config": {"dtype": "float32"}}, "gamma_initializer": {"class_name": "Ones", "config": {"dtype": "float32"}}, "moving_mean_initializer": {"class_name": "Zeros", "config": {"dtype": "float32"}}, "moving_variance_initializer": {"class_name": "Ones", "config": {"dtype": "float32"}}, "beta_regularizer": null, "gamma_regularizer": null, "beta_constraint": null, "gamma_constraint": null}, "inbound_nodes": [[["conv2d_28", 0, 0, {}]]]}, {"name": "lambda_28", "class_name": "Lambda", "config": {"name": "lambda_28", "trainable": true, "dtype": "float32", "function": ["4wEAAAAAAAAAAQAAAAYAAABTAAAAcyAAAAB8AHQAagF0AGoCagNkAXQAagR8AIMBFwCDAYMBFABT\nACkCTukBAAAAKQXaAnRm2gR0YW5o2gRtYXRo2gNsb2faA2V4cCkB2gF4qQByCAAAAPo5L2hvbWUv\nYjkyMDQwNS9naXQvdGVuc29yZmxvdy15b2xvdjQtdGZsaXRlL2NvcmUvY29tbW9uLnB52gg8bGFt\nYmRhPj4AAADzAAAAAA==\n", null, null], "function_type": "lambda", "module": "core.common", "output_shape": null, "output_shape_type": "raw", "output_shape_module": null, "arguments": {}}, "inbound_nodes": [[["batch_normalization_28", 0, 0, {}]]]}, {"name": "conv2d_29", "class_name": "Conv2D", "config": {"name": "conv2d_29", "trainable": true, "dtype": "float32", "filters": 128, "kernel_size": [3, 3], "strides": [1, 1], "padding": "same", "data_format": "channels_last", "dilation_rate": [1, 1], "activation": "linear", "use_bias": false, "kernel_initializer": {"class_name": "RandomNormal", "config": {"mean": 0.0, "stddev": 0.01, "seed": null, "dtype": "float32"}}, "bias_initializer": {"class_name": "Constant", "config": {"value": 0.0, "dtype": "float32"}}, "kernel_regularizer": {"class_name": "L1L2", "config": {"l1": 0.0, "l2": 0.0005000000237487257}}, "bias_regularizer": null, "activity_regularizer": null, "kernel_constraint": null, "bias_constraint": null}, "inbound_nodes": [[["lambda_28", 0, 0, {}]]]}, {"name": "batch_normalization_29", "class_name": "BatchNormalization", "config": {"name": "batch_normalization_29", "trainable": true, "dtype": "float32", "axis": [3], "momentum": 0.99, "epsilon": 0.001, "center": true, "scale": true, "beta_initializer": {"class_name": "Zeros", "config": {"dtype": "float32"}}, "gamma_initializer": {"class_name": "Ones", "config": {"dtype": "float32"}}, "moving_mean_initializer": {"class_name": "Zeros", "config": {"dtype": "float32"}}, "moving_variance_initializer": {"class_name": "Ones", "config": {"dtype": "float32"}}, "beta_regularizer": null, "gamma_regularizer": null, "beta_constraint": null, "gamma_constraint": null}, "inbound_nodes": [[["conv2d_29", 0, 0, {}]]]}, {"name": "lambda_29", "class_name": "Lambda", "config": {"name": "lambda_29", "trainable": true, "dtype": "float32", "function": ["4wEAAAAAAAAAAQAAAAYAAABTAAAAcyAAAAB8AHQAagF0AGoCagNkAXQAagR8AIMBFwCDAYMBFABT\nACkCTukBAAAAKQXaAnRm2gR0YW5o2gRtYXRo2gNsb2faA2V4cCkB2gF4qQByCAAAAPo5L2hvbWUv\nYjkyMDQwNS9naXQvdGVuc29yZmxvdy15b2xvdjQtdGZsaXRlL2NvcmUvY29tbW9uLnB52gg8bGFt\nYmRhPj4AAADzAAAAAA==\n", null, null], "function_type": "lambda", "module": "core.common", "output_shape": null, "output_shape_type": "raw", "output_shape_module": null, "arguments": {}}, "inbound_nodes": [[["batch_normalization_29", 0, 0, {}]]]}, {"name": "tf_op_layer_add_7", "class_name": "TensorFlowOpLayer", "config": {"name": "add_7", "trainable": true, "dtype": null, "node_def": {"name": "add_7", "op": "AddV2", "input": ["add_6", "lambda_29/mul"], "attr": {"T": {"type": "DT_FLOAT"}}}, "constants": {}}, "inbound_nodes": [[["tf_op_layer_add_6", 0, 0, {}], ["lambda_29", 0, 0, {}]]]}, {"name": "conv2d_30", "class_name": "Conv2D", "config": {"name": "conv2d_30", "trainable": true, "dtype": "float32", "filters": 128, "kernel_size": [1, 1], "strides": [1, 1], "padding": "same", "data_format": "channels_last", "dilation_rate": [1, 1], "activation": "linear", "use_bias": false, "kernel_initializer": {"class_name": "RandomNormal", "config": {"mean": 0.0, "stddev": 0.01, "seed": null, "dtype": "float32"}}, "bias_initializer": {"class_name": "Constant", "config": {"value": 0.0, "dtype": "float32"}}, "kernel_regularizer": {"class_name": "L1L2", "config": {"l1": 0.0, "l2": 0.0005000000237487257}}, "bias_regularizer": null, "activity_regularizer": null, "kernel_constraint": null, "bias_constraint": null}, "inbound_nodes": [[["tf_op_layer_add_7", 0, 0, {}]]]}, {"name": "batch_normalization_30", "class_name": "BatchNormalization", "config": {"name": "batch_normalization_30", "trainable": true, "dtype": "float32", "axis": [3], "momentum": 0.99, "epsilon": 0.001, "center": true, "scale": true, "beta_initializer": {"class_name": "Zeros", "config": {"dtype": "float32"}}, "gamma_initializer": {"class_name": "Ones", "config": {"dtype": "float32"}}, "moving_mean_initializer": {"class_name": "Zeros", "config": {"dtype": "float32"}}, "moving_variance_initializer": {"class_name": "Ones", "config": {"dtype": "float32"}}, "beta_regularizer": null, "gamma_regularizer": null, "beta_constraint": null, "gamma_constraint": null}, "inbound_nodes": [[["conv2d_30", 0, 0, {}]]]}, {"name": "lambda_30", "class_name": "Lambda", "config": {"name": "lambda_30", "trainable": true, "dtype": "float32", "function": ["4wEAAAAAAAAAAQAAAAYAAABTAAAAcyAAAAB8AHQAagF0AGoCagNkAXQAagR8AIMBFwCDAYMBFABT\nACkCTukBAAAAKQXaAnRm2gR0YW5o2gRtYXRo2gNsb2faA2V4cCkB2gF4qQByCAAAAPo5L2hvbWUv\nYjkyMDQwNS9naXQvdGVuc29yZmxvdy15b2xvdjQtdGZsaXRlL2NvcmUvY29tbW9uLnB52gg8bGFt\nYmRhPj4AAADzAAAAAA==\n", null, null], "function_type": "lambda", "module": "core.common", "output_shape": null, "output_shape_type": "raw", "output_shape_module": null, "arguments": {}}, "inbound_nodes": [[["batch_normalization_30", 0, 0, {}]]]}, {"name": "conv2d_31", "class_name": "Conv2D", "config": {"name": "conv2d_31", "trainable": true, "dtype": "float32", "filters": 128, "kernel_size": [3, 3], "strides": [1, 1], "padding": "same", "data_format": "channels_last", "dilation_rate": [1, 1], "activation": "linear", "use_bias": false, "kernel_initializer": {"class_name": "RandomNormal", "config": {"mean": 0.0, "stddev": 0.01, "seed": null, "dtype": "float32"}}, "bias_initializer": {"class_name": "Constant", "config": {"value": 0.0, "dtype": "float32"}}, "kernel_regularizer": {"class_name": "L1L2", "config": {"l1": 0.0, "l2": 0.0005000000237487257}}, "bias_regularizer": null, "activity_regularizer": null, "kernel_constraint": null, "bias_constraint": null}, "inbound_nodes": [[["lambda_30", 0, 0, {}]]]}, {"name": "batch_normalization_31", "class_name": "BatchNormalization", "config": {"name": "batch_normalization_31", "trainable": true, "dtype": "float32", "axis": [3], "momentum": 0.99, "epsilon": 0.001, "center": true, "scale": true, "beta_initializer": {"class_name": "Zeros", "config": {"dtype": "float32"}}, "gamma_initializer": {"class_name": "Ones", "config": {"dtype": "float32"}}, "moving_mean_initializer": {"class_name": "Zeros", "config": {"dtype": "float32"}}, "moving_variance_initializer": {"class_name": "Ones", "config": {"dtype": "float32"}}, "beta_regularizer": null, "gamma_regularizer": null, "beta_constraint": null, "gamma_constraint": null}, "inbound_nodes": [[["conv2d_31", 0, 0, {}]]]}, {"name": "lambda_31", "class_name": "Lambda", "config": {"name": "lambda_31", "trainable": true, "dtype": "float32", "function": ["4wEAAAAAAAAAAQAAAAYAAABTAAAAcyAAAAB8AHQAagF0AGoCagNkAXQAagR8AIMBFwCDAYMBFABT\nACkCTukBAAAAKQXaAnRm2gR0YW5o2gRtYXRo2gNsb2faA2V4cCkB2gF4qQByCAAAAPo5L2hvbWUv\nYjkyMDQwNS9naXQvdGVuc29yZmxvdy15b2xvdjQtdGZsaXRlL2NvcmUvY29tbW9uLnB52gg8bGFt\nYmRhPj4AAADzAAAAAA==\n", null, null], "function_type": "lambda", "module": "core.common", "output_shape": null, "output_shape_type": "raw", "output_shape_module": null, "arguments": {}}, "inbound_nodes": [[["batch_normalization_31", 0, 0, {}]]]}, {"name": "tf_op_layer_add_8", "class_name": "TensorFlowOpLayer", "config": {"name": "add_8", "trainable": true, "dtype": null, "node_def": {"name": "add_8", "op": "AddV2", "input": ["add_7", "lambda_31/mul"], "attr": {"T": {"type": "DT_FLOAT"}}}, "constants": {}}, "inbound_nodes": [[["tf_op_layer_add_7", 0, 0, {}], ["lambda_31", 0, 0, {}]]]}, {"name": "conv2d_32", "class_name": "Conv2D", "config": {"name": "conv2d_32", "trainable": true, "dtype": "float32", "filters": 128, "kernel_size": [1, 1], "strides": [1, 1], "padding": "same", "data_format": "channels_last", "dilation_rate": [1, 1], "activation": "linear", "use_bias": false, "kernel_initializer": {"class_name": "RandomNormal", "config": {"mean": 0.0, "stddev": 0.01, "seed": null, "dtype": "float32"}}, "bias_initializer": {"class_name": "Constant", "config": {"value": 0.0, "dtype": "float32"}}, "kernel_regularizer": {"class_name": "L1L2", "config": {"l1": 0.0, "l2": 0.0005000000237487257}}, "bias_regularizer": null, "activity_regularizer": null, "kernel_constraint": null, "bias_constraint": null}, "inbound_nodes": [[["tf_op_layer_add_8", 0, 0, {}]]]}, {"name": "batch_normalization_32", "class_name": "BatchNormalization", "config": {"name": "batch_normalization_32", "trainable": true, "dtype": "float32", "axis": [3], "momentum": 0.99, "epsilon": 0.001, "center": true, "scale": true, "beta_initializer": {"class_name": "Zeros", "config": {"dtype": "float32"}}, "gamma_initializer": {"class_name": "Ones", "config": {"dtype": "float32"}}, "moving_mean_initializer": {"class_name": "Zeros", "config": {"dtype": "float32"}}, "moving_variance_initializer": {"class_name": "Ones", "config": {"dtype": "float32"}}, "beta_regularizer": null, "gamma_regularizer": null, "beta_constraint": null, "gamma_constraint": null}, "inbound_nodes": [[["conv2d_32", 0, 0, {}]]]}, {"name": "lambda_32", "class_name": "Lambda", "config": {"name": "lambda_32", "trainable": true, "dtype": "float32", "function": ["4wEAAAAAAAAAAQAAAAYAAABTAAAAcyAAAAB8AHQAagF0AGoCagNkAXQAagR8AIMBFwCDAYMBFABT\nACkCTukBAAAAKQXaAnRm2gR0YW5o2gRtYXRo2gNsb2faA2V4cCkB2gF4qQByCAAAAPo5L2hvbWUv\nYjkyMDQwNS9naXQvdGVuc29yZmxvdy15b2xvdjQtdGZsaXRlL2NvcmUvY29tbW9uLnB52gg8bGFt\nYmRhPj4AAADzAAAAAA==\n", null, null], "function_type": "lambda", "module": "core.common", "output_shape": null, "output_shape_type": "raw", "output_shape_module": null, "arguments": {}}, "inbound_nodes": [[["batch_normalization_32", 0, 0, {}]]]}, {"name": "conv2d_33", "class_name": "Conv2D", "config": {"name": "conv2d_33", "trainable": true, "dtype": "float32", "filters": 128, "kernel_size": [3, 3], "strides": [1, 1], "padding": "same", "data_format": "channels_last", "dilation_rate": [1, 1], "activation": "linear", "use_bias": false, "kernel_initializer": {"class_name": "RandomNormal", "config": {"mean": 0.0, "stddev": 0.01, "seed": null, "dtype": "float32"}}, "bias_initializer": {"class_name": "Constant", "config": {"value": 0.0, "dtype": "float32"}}, "kernel_regularizer": {"class_name": "L1L2", "config": {"l1": 0.0, "l2": 0.0005000000237487257}}, "bias_regularizer": null, "activity_regularizer": null, "kernel_constraint": null, "bias_constraint": null}, "inbound_nodes": [[["lambda_32", 0, 0, {}]]]}, {"name": "batch_normalization_33", "class_name": "BatchNormalization", "config": {"name": "batch_normalization_33", "trainable": true, "dtype": "float32", "axis": [3], "momentum": 0.99, "epsilon": 0.001, "center": true, "scale": true, "beta_initializer": {"class_name": "Zeros", "config": {"dtype": "float32"}}, "gamma_initializer": {"class_name": "Ones", "config": {"dtype": "float32"}}, "moving_mean_initializer": {"class_name": "Zeros", "config": {"dtype": "float32"}}, "moving_variance_initializer": {"class_name": "Ones", "config": {"dtype": "float32"}}, "beta_regularizer": null, "gamma_regularizer": null, "beta_constraint": null, "gamma_constraint": null}, "inbound_nodes": [[["conv2d_33", 0, 0, {}]]]}, {"name": "lambda_33", "class_name": "Lambda", "config": {"name": "lambda_33", "trainable": true, "dtype": "float32", "function": ["4wEAAAAAAAAAAQAAAAYAAABTAAAAcyAAAAB8AHQAagF0AGoCagNkAXQAagR8AIMBFwCDAYMBFABT\nACkCTukBAAAAKQXaAnRm2gR0YW5o2gRtYXRo2gNsb2faA2V4cCkB2gF4qQByCAAAAPo5L2hvbWUv\nYjkyMDQwNS9naXQvdGVuc29yZmxvdy15b2xvdjQtdGZsaXRlL2NvcmUvY29tbW9uLnB52gg8bGFt\nYmRhPj4AAADzAAAAAA==\n", null, null], "function_type": "lambda", "module": "core.common", "output_shape": null, "output_shape_type": "raw", "output_shape_module": null, "arguments": {}}, "inbound_nodes": [[["batch_normalization_33", 0, 0, {}]]]}, {"name": "tf_op_layer_add_9", "class_name": "TensorFlowOpLayer", "config": {"name": "add_9", "trainable": true, "dtype": null, "node_def": {"name": "add_9", "op": "AddV2", "input": ["add_8", "lambda_33/mul"], "attr": {"T": {"type": "DT_FLOAT"}}}, "constants": {}}, "inbound_nodes": [[["tf_op_layer_add_8", 0, 0, {}], ["lambda_33", 0, 0, {}]]]}, {"name": "conv2d_34", "class_name": "Conv2D", "config": {"name": "conv2d_34", "trainable": true, "dtype": "float32", "filters": 128, "kernel_size": [1, 1], "strides": [1, 1], "padding": "same", "data_format": "channels_last", "dilation_rate": [1, 1], "activation": "linear", "use_bias": false, "kernel_initializer": {"class_name": "RandomNormal", "config": {"mean": 0.0, "stddev": 0.01, "seed": null, "dtype": "float32"}}, "bias_initializer": {"class_name": "Constant", "config": {"value": 0.0, "dtype": "float32"}}, "kernel_regularizer": {"class_name": "L1L2", "config": {"l1": 0.0, "l2": 0.0005000000237487257}}, "bias_regularizer": null, "activity_regularizer": null, "kernel_constraint": null, "bias_constraint": null}, "inbound_nodes": [[["tf_op_layer_add_9", 0, 0, {}]]]}, {"name": "batch_normalization_34", "class_name": "BatchNormalization", "config": {"name": "batch_normalization_34", "trainable": true, "dtype": "float32", "axis": [3], "momentum": 0.99, "epsilon": 0.001, "center": true, "scale": true, "beta_initializer": {"class_name": "Zeros", "config": {"dtype": "float32"}}, "gamma_initializer": {"class_name": "Ones", "config": {"dtype": "float32"}}, "moving_mean_initializer": {"class_name": "Zeros", "config": {"dtype": "float32"}}, "moving_variance_initializer": {"class_name": "Ones", "config": {"dtype": "float32"}}, "beta_regularizer": null, "gamma_regularizer": null, "beta_constraint": null, "gamma_constraint": null}, "inbound_nodes": [[["conv2d_34", 0, 0, {}]]]}, {"name": "lambda_34", "class_name": "Lambda", "config": {"name": "lambda_34", "trainable": true, "dtype": "float32", "function": ["4wEAAAAAAAAAAQAAAAYAAABTAAAAcyAAAAB8AHQAagF0AGoCagNkAXQAagR8AIMBFwCDAYMBFABT\nACkCTukBAAAAKQXaAnRm2gR0YW5o2gRtYXRo2gNsb2faA2V4cCkB2gF4qQByCAAAAPo5L2hvbWUv\nYjkyMDQwNS9naXQvdGVuc29yZmxvdy15b2xvdjQtdGZsaXRlL2NvcmUvY29tbW9uLnB52gg8bGFt\nYmRhPj4AAADzAAAAAA==\n", null, null], "function_type": "lambda", "module": "core.common", "output_shape": null, "output_shape_type": "raw", "output_shape_module": null, "arguments": {}}, "inbound_nodes": [[["batch_normalization_34", 0, 0, {}]]]}, {"name": "conv2d_35", "class_name": "Conv2D", "config": {"name": "conv2d_35", "trainable": true, "dtype": "float32", "filters": 128, "kernel_size": [3, 3], "strides": [1, 1], "padding": "same", "data_format": "channels_last", "dilation_rate": [1, 1], "activation": "linear", "use_bias": false, "kernel_initializer": {"class_name": "RandomNormal", "config": {"mean": 0.0, "stddev": 0.01, "seed": null, "dtype": "float32"}}, "bias_initializer": {"class_name": "Constant", "config": {"value": 0.0, "dtype": "float32"}}, "kernel_regularizer": {"class_name": "L1L2", "config": {"l1": 0.0, "l2": 0.0005000000237487257}}, "bias_regularizer": null, "activity_regularizer": null, "kernel_constraint": null, "bias_constraint": null}, "inbound_nodes": [[["lambda_34", 0, 0, {}]]]}, {"name": "batch_normalization_35", "class_name": "BatchNormalization", "config": {"name": "batch_normalization_35", "trainable": true, "dtype": "float32", "axis": [3], "momentum": 0.99, "epsilon": 0.001, "center": true, "scale": true, "beta_initializer": {"class_name": "Zeros", "config": {"dtype": "float32"}}, "gamma_initializer": {"class_name": "Ones", "config": {"dtype": "float32"}}, "moving_mean_initializer": {"class_name": "Zeros", "config": {"dtype": "float32"}}, "moving_variance_initializer": {"class_name": "Ones", "config": {"dtype": "float32"}}, "beta_regularizer": null, "gamma_regularizer": null, "beta_constraint": null, "gamma_constraint": null}, "inbound_nodes": [[["conv2d_35", 0, 0, {}]]]}, {"name": "lambda_35", "class_name": "Lambda", "config": {"name": "lambda_35", "trainable": true, "dtype": "float32", "function": ["4wEAAAAAAAAAAQAAAAYAAABTAAAAcyAAAAB8AHQAagF0AGoCagNkAXQAagR8AIMBFwCDAYMBFABT\nACkCTukBAAAAKQXaAnRm2gR0YW5o2gRtYXRo2gNsb2faA2V4cCkB2gF4qQByCAAAAPo5L2hvbWUv\nYjkyMDQwNS9naXQvdGVuc29yZmxvdy15b2xvdjQtdGZsaXRlL2NvcmUvY29tbW9uLnB52gg8bGFt\nYmRhPj4AAADzAAAAAA==\n", null, null], "function_type": "lambda", "module": "core.common", "output_shape": null, "output_shape_type": "raw", "output_shape_module": null, "arguments": {}}, "inbound_nodes": [[["batch_normalization_35", 0, 0, {}]]]}, {"name": "tf_op_layer_add_10", "class_name": "TensorFlowOpLayer", "config": {"name": "add_10", "trainable": true, "dtype": null, "node_def": {"name": "add_10", "op": "AddV2", "input": ["add_9", "lambda_35/mul"], "attr": {"T": {"type": "DT_FLOAT"}}}, "constants": {}}, "inbound_nodes": [[["tf_op_layer_add_9", 0, 0, {}], ["lambda_35", 0, 0, {}]]]}, {"name": "conv2d_36", "class_name": "Conv2D", "config": {"name": "conv2d_36", "trainable": true, "dtype": "float32", "filters": 128, "kernel_size": [1, 1], "strides": [1, 1], "padding": "same", "data_format": "channels_last", "dilation_rate": [1, 1], "activation": "linear", "use_bias": false, "kernel_initializer": {"class_name": "RandomNormal", "config": {"mean": 0.0, "stddev": 0.01, "seed": null, "dtype": "float32"}}, "bias_initializer": {"class_name": "Constant", "config": {"value": 0.0, "dtype": "float32"}}, "kernel_regularizer": {"class_name": "L1L2", "config": {"l1": 0.0, "l2": 0.0005000000237487257}}, "bias_regularizer": null, "activity_regularizer": null, "kernel_constraint": null, "bias_constraint": null}, "inbound_nodes": [[["tf_op_layer_add_10", 0, 0, {}]]]}, {"name": "conv2d_18", "class_name": "Conv2D", "config": {"name": "conv2d_18", "trainable": true, "dtype": "float32", "filters": 128, "kernel_size": [1, 1], "strides": [1, 1], "padding": "same", "data_format": "channels_last", "dilation_rate": [1, 1], "activation": "linear", "use_bias": false, "kernel_initializer": {"class_name": "RandomNormal", "config": {"mean": 0.0, "stddev": 0.01, "seed": null, "dtype": "float32"}}, "bias_initializer": {"class_name": "Constant", "config": {"value": 0.0, "dtype": "float32"}}, "kernel_regularizer": {"class_name": "L1L2", "config": {"l1": 0.0, "l2": 0.0005000000237487257}}, "bias_regularizer": null, "activity_regularizer": null, "kernel_constraint": null, "bias_constraint": null}, "inbound_nodes": [[["lambda_17", 0, 0, {}]]]}, {"name": "batch_normalization_36", "class_name": "BatchNormalization", "config": {"name": "batch_normalization_36", "trainable": true, "dtype": "float32", "axis": [3], "momentum": 0.99, "epsilon": 0.001, "center": true, "scale": true, "beta_initializer": {"class_name": "Zeros", "config": {"dtype": "float32"}}, "gamma_initializer": {"class_name": "Ones", "config": {"dtype": "float32"}}, "moving_mean_initializer": {"class_name": "Zeros", "config": {"dtype": "float32"}}, "moving_variance_initializer": {"class_name": "Ones", "config": {"dtype": "float32"}}, "beta_regularizer": null, "gamma_regularizer": null, "beta_constraint": null, "gamma_constraint": null}, "inbound_nodes": [[["conv2d_36", 0, 0, {}]]]}, {"name": "batch_normalization_18", "class_name": "BatchNormalization", "config": {"name": "batch_normalization_18", "trainable": true, "dtype": "float32", "axis": [3], "momentum": 0.99, "epsilon": 0.001, "center": true, "scale": true, "beta_initializer": {"class_name": "Zeros", "config": {"dtype": "float32"}}, "gamma_initializer": {"class_name": "Ones", "config": {"dtype": "float32"}}, "moving_mean_initializer": {"class_name": "Zeros", "config": {"dtype": "float32"}}, "moving_variance_initializer": {"class_name": "Ones", "config": {"dtype": "float32"}}, "beta_regularizer": null, "gamma_regularizer": null, "beta_constraint": null, "gamma_constraint": null}, "inbound_nodes": [[["conv2d_18", 0, 0, {}]]]}, {"name": "lambda_36", "class_name": "Lambda", "config": {"name": "lambda_36", "trainable": true, "dtype": "float32", "function": ["4wEAAAAAAAAAAQAAAAYAAABTAAAAcyAAAAB8AHQAagF0AGoCagNkAXQAagR8AIMBFwCDAYMBFABT\nACkCTukBAAAAKQXaAnRm2gR0YW5o2gRtYXRo2gNsb2faA2V4cCkB2gF4qQByCAAAAPo5L2hvbWUv\nYjkyMDQwNS9naXQvdGVuc29yZmxvdy15b2xvdjQtdGZsaXRlL2NvcmUvY29tbW9uLnB52gg8bGFt\nYmRhPj4AAADzAAAAAA==\n", null, null], "function_type": "lambda", "module": "core.common", "output_shape": null, "output_shape_type": "raw", "output_shape_module": null, "arguments": {}}, "inbound_nodes": [[["batch_normalization_36", 0, 0, {}]]]}, {"name": "lambda_18", "class_name": "Lambda", "config": {"name": "lambda_18", "trainable": true, "dtype": "float32", "function": ["4wEAAAAAAAAAAQAAAAYAAABTAAAAcyAAAAB8AHQAagF0AGoCagNkAXQAagR8AIMBFwCDAYMBFABT\nACkCTukBAAAAKQXaAnRm2gR0YW5o2gRtYXRo2gNsb2faA2V4cCkB2gF4qQByCAAAAPo5L2hvbWUv\nYjkyMDQwNS9naXQvdGVuc29yZmxvdy15b2xvdjQtdGZsaXRlL2NvcmUvY29tbW9uLnB52gg8bGFt\nYmRhPj4AAADzAAAAAA==\n", null, null], "function_type": "lambda", "module": "core.common", "output_shape": null, "output_shape_type": "raw", "output_shape_module": null, "arguments": {}}, "inbound_nodes": [[["batch_normalization_18", 0, 0, {}]]]}, {"name": "tf_op_layer_concat_2", "class_name": "TensorFlowOpLayer", "config": {"name": "concat_2", "trainable": true, "dtype": null, "node_def": {"name": "concat_2", "op": "ConcatV2", "input": ["lambda_36/mul", "lambda_18/mul", "concat_2/axis"], "attr": {"Tidx": {"type": "DT_INT32"}, "T": {"type": "DT_FLOAT"}, "N": {"i": "2"}}}, "constants": {"2": -1}}, "inbound_nodes": [[["lambda_36", 0, 0, {}], ["lambda_18", 0, 0, {}]]]}, {"name": "conv2d_37", "class_name": "Conv2D", "config": {"name": "conv2d_37", "trainable": true, "dtype": "float32", "filters": 256, "kernel_size": [1, 1], "strides": [1, 1], "padding": "same", "data_format": "channels_last", "dilation_rate": [1, 1], "activation": "linear", "use_bias": false, "kernel_initializer": {"class_name": "RandomNormal", "config": {"mean": 0.0, "stddev": 0.01, "seed": null, "dtype": "float32"}}, "bias_initializer": {"class_name": "Constant", "config": {"value": 0.0, "dtype": "float32"}}, "kernel_regularizer": {"class_name": "L1L2", "config": {"l1": 0.0, "l2": 0.0005000000237487257}}, "bias_regularizer": null, "activity_regularizer": null, "kernel_constraint": null, "bias_constraint": null}, "inbound_nodes": [[["tf_op_layer_concat_2", 0, 0, {}]]]}, {"name": "batch_normalization_37", "class_name": "BatchNormalization", "config": {"name": "batch_normalization_37", "trainable": true, "dtype": "float32", "axis": [3], "momentum": 0.99, "epsilon": 0.001, "center": true, "scale": true, "beta_initializer": {"class_name": "Zeros", "config": {"dtype": "float32"}}, "gamma_initializer": {"class_name": "Ones", "config": {"dtype": "float32"}}, "moving_mean_initializer": {"class_name": "Zeros", "config": {"dtype": "float32"}}, "moving_variance_initializer": {"class_name": "Ones", "config": {"dtype": "float32"}}, "beta_regularizer": null, "gamma_regularizer": null, "beta_constraint": null, "gamma_constraint": null}, "inbound_nodes": [[["conv2d_37", 0, 0, {}]]]}, {"name": "lambda_37", "class_name": "Lambda", "config": {"name": "lambda_37", "trainable": true, "dtype": "float32", "function": ["4wEAAAAAAAAAAQAAAAYAAABTAAAAcyAAAAB8AHQAagF0AGoCagNkAXQAagR8AIMBFwCDAYMBFABT\nACkCTukBAAAAKQXaAnRm2gR0YW5o2gRtYXRo2gNsb2faA2V4cCkB2gF4qQByCAAAAPo5L2hvbWUv\nYjkyMDQwNS9naXQvdGVuc29yZmxvdy15b2xvdjQtdGZsaXRlL2NvcmUvY29tbW9uLnB52gg8bGFt\nYmRhPj4AAADzAAAAAA==\n", null, null], "function_type": "lambda", "module": "core.common", "output_shape": null, "output_shape_type": "raw", "output_shape_module": null, "arguments": {}}, "inbound_nodes": [[["batch_normalization_37", 0, 0, {}]]]}, {"name": "zero_padding2d_3", "class_name": "ZeroPadding2D", "config": {"name": "zero_padding2d_3", "trainable": true, "dtype": "float32", "padding": [[1, 0], [1, 0]], "data_format": "channels_last"}, "inbound_nodes": [[["lambda_37", 0, 0, {}]]]}, {"name": "conv2d_38", "class_name": "Conv2D", "config": {"name": "conv2d_38", "trainable": true, "dtype": "float32", "filters": 512, "kernel_size": [3, 3], "strides": [2, 2], "padding": "valid", "data_format": "channels_last", "dilation_rate": [1, 1], "activation": "linear", "use_bias": false, "kernel_initializer": {"class_name": "RandomNormal", "config": {"mean": 0.0, "stddev": 0.01, "seed": null, "dtype": "float32"}}, "bias_initializer": {"class_name": "Constant", "config": {"value": 0.0, "dtype": "float32"}}, "kernel_regularizer": {"class_name": "L1L2", "config": {"l1": 0.0, "l2": 0.0005000000237487257}}, "bias_regularizer": null, "activity_regularizer": null, "kernel_constraint": null, "bias_constraint": null}, "inbound_nodes": [[["zero_padding2d_3", 0, 0, {}]]]}, {"name": "batch_normalization_38", "class_name": "BatchNormalization", "config": {"name": "batch_normalization_38", "trainable": true, "dtype": "float32", "axis": [3], "momentum": 0.99, "epsilon": 0.001, "center": true, "scale": true, "beta_initializer": {"class_name": "Zeros", "config": {"dtype": "float32"}}, "gamma_initializer": {"class_name": "Ones", "config": {"dtype": "float32"}}, "moving_mean_initializer": {"class_name": "Zeros", "config": {"dtype": "float32"}}, "moving_variance_initializer": {"class_name": "Ones", "config": {"dtype": "float32"}}, "beta_regularizer": null, "gamma_regularizer": null, "beta_constraint": null, "gamma_constraint": null}, "inbound_nodes": [[["conv2d_38", 0, 0, {}]]]}, {"name": "lambda_38", "class_name": "Lambda", "config": {"name": "lambda_38", "trainable": true, "dtype": "float32", "function": ["4wEAAAAAAAAAAQAAAAYAAABTAAAAcyAAAAB8AHQAagF0AGoCagNkAXQAagR8AIMBFwCDAYMBFABT\nACkCTukBAAAAKQXaAnRm2gR0YW5o2gRtYXRo2gNsb2faA2V4cCkB2gF4qQByCAAAAPo5L2hvbWUv\nYjkyMDQwNS9naXQvdGVuc29yZmxvdy15b2xvdjQtdGZsaXRlL2NvcmUvY29tbW9uLnB52gg8bGFt\nYmRhPj4AAADzAAAAAA==\n", null, null], "function_type": "lambda", "module": "core.common", "output_shape": null, "output_shape_type": "raw", "output_shape_module": null, "arguments": {}}, "inbound_nodes": [[["batch_normalization_38", 0, 0, {}]]]}, {"name": "conv2d_40", "class_name": "Conv2D", "config": {"name": "conv2d_40", "trainable": true, "dtype": "float32", "filters": 256, "kernel_size": [1, 1], "strides": [1, 1], "padding": "same", "data_format": "channels_last", "dilation_rate": [1, 1], "activation": "linear", "use_bias": false, "kernel_initializer": {"class_name": "RandomNormal", "config": {"mean": 0.0, "stddev": 0.01, "seed": null, "dtype": "float32"}}, "bias_initializer": {"class_name": "Constant", "config": {"value": 0.0, "dtype": "float32"}}, "kernel_regularizer": {"class_name": "L1L2", "config": {"l1": 0.0, "l2": 0.0005000000237487257}}, "bias_regularizer": null, "activity_regularizer": null, "kernel_constraint": null, "bias_constraint": null}, "inbound_nodes": [[["lambda_38", 0, 0, {}]]]}, {"name": "batch_normalization_40", "class_name": "BatchNormalization", "config": {"name": "batch_normalization_40", "trainable": true, "dtype": "float32", "axis": [3], "momentum": 0.99, "epsilon": 0.001, "center": true, "scale": true, "beta_initializer": {"class_name": "Zeros", "config": {"dtype": "float32"}}, "gamma_initializer": {"class_name": "Ones", "config": {"dtype": "float32"}}, "moving_mean_initializer": {"class_name": "Zeros", "config": {"dtype": "float32"}}, "moving_variance_initializer": {"class_name": "Ones", "config": {"dtype": "float32"}}, "beta_regularizer": null, "gamma_regularizer": null, "beta_constraint": null, "gamma_constraint": null}, "inbound_nodes": [[["conv2d_40", 0, 0, {}]]]}, {"name": "lambda_40", "class_name": "Lambda", "config": {"name": "lambda_40", "trainable": true, "dtype": "float32", "function": ["4wEAAAAAAAAAAQAAAAYAAABTAAAAcyAAAAB8AHQAagF0AGoCagNkAXQAagR8AIMBFwCDAYMBFABT\nACkCTukBAAAAKQXaAnRm2gR0YW5o2gRtYXRo2gNsb2faA2V4cCkB2gF4qQByCAAAAPo5L2hvbWUv\nYjkyMDQwNS9naXQvdGVuc29yZmxvdy15b2xvdjQtdGZsaXRlL2NvcmUvY29tbW9uLnB52gg8bGFt\nYmRhPj4AAADzAAAAAA==\n", null, null], "function_type": "lambda", "module": "core.common", "output_shape": null, "output_shape_type": "raw", "output_shape_module": null, "arguments": {}}, "inbound_nodes": [[["batch_normalization_40", 0, 0, {}]]]}, {"name": "conv2d_41", "class_name": "Conv2D", "config": {"name": "conv2d_41", "trainable": true, "dtype": "float32", "filters": 256, "kernel_size": [1, 1], "strides": [1, 1], "padding": "same", "data_format": "channels_last", "dilation_rate": [1, 1], "activation": "linear", "use_bias": false, "kernel_initializer": {"class_name": "RandomNormal", "config": {"mean": 0.0, "stddev": 0.01, "seed": null, "dtype": "float32"}}, "bias_initializer": {"class_name": "Constant", "config": {"value": 0.0, "dtype": "float32"}}, "kernel_regularizer": {"class_name": "L1L2", "config": {"l1": 0.0, "l2": 0.0005000000237487257}}, "bias_regularizer": null, "activity_regularizer": null, "kernel_constraint": null, "bias_constraint": null}, "inbound_nodes": [[["lambda_40", 0, 0, {}]]]}, {"name": "batch_normalization_41", "class_name": "BatchNormalization", "config": {"name": "batch_normalization_41", "trainable": true, "dtype": "float32", "axis": [3], "momentum": 0.99, "epsilon": 0.001, "center": true, "scale": true, "beta_initializer": {"class_name": "Zeros", "config": {"dtype": "float32"}}, "gamma_initializer": {"class_name": "Ones", "config": {"dtype": "float32"}}, "moving_mean_initializer": {"class_name": "Zeros", "config": {"dtype": "float32"}}, "moving_variance_initializer": {"class_name": "Ones", "config": {"dtype": "float32"}}, "beta_regularizer": null, "gamma_regularizer": null, "beta_constraint": null, "gamma_constraint": null}, "inbound_nodes": [[["conv2d_41", 0, 0, {}]]]}, {"name": "lambda_41", "class_name": "Lambda", "config": {"name": "lambda_41", "trainable": true, "dtype": "float32", "function": ["4wEAAAAAAAAAAQAAAAYAAABTAAAAcyAAAAB8AHQAagF0AGoCagNkAXQAagR8AIMBFwCDAYMBFABT\nACkCTukBAAAAKQXaAnRm2gR0YW5o2gRtYXRo2gNsb2faA2V4cCkB2gF4qQByCAAAAPo5L2hvbWUv\nYjkyMDQwNS9naXQvdGVuc29yZmxvdy15b2xvdjQtdGZsaXRlL2NvcmUvY29tbW9uLnB52gg8bGFt\nYmRhPj4AAADzAAAAAA==\n", null, null], "function_type": "lambda", "module": "core.common", "output_shape": null, "output_shape_type": "raw", "output_shape_module": null, "arguments": {}}, "inbound_nodes": [[["batch_normalization_41", 0, 0, {}]]]}, {"name": "conv2d_42", "class_name": "Conv2D", "config": {"name": "conv2d_42", "trainable": true, "dtype": "float32", "filters": 256, "kernel_size": [3, 3], "strides": [1, 1], "padding": "same", "data_format": "channels_last", "dilation_rate": [1, 1], "activation": "linear", "use_bias": false, "kernel_initializer": {"class_name": "RandomNormal", "config": {"mean": 0.0, "stddev": 0.01, "seed": null, "dtype": "float32"}}, "bias_initializer": {"class_name": "Constant", "config": {"value": 0.0, "dtype": "float32"}}, "kernel_regularizer": {"class_name": "L1L2", "config": {"l1": 0.0, "l2": 0.0005000000237487257}}, "bias_regularizer": null, "activity_regularizer": null, "kernel_constraint": null, "bias_constraint": null}, "inbound_nodes": [[["lambda_41", 0, 0, {}]]]}, {"name": "batch_normalization_42", "class_name": "BatchNormalization", "config": {"name": "batch_normalization_42", "trainable": true, "dtype": "float32", "axis": [3], "momentum": 0.99, "epsilon": 0.001, "center": true, "scale": true, "beta_initializer": {"class_name": "Zeros", "config": {"dtype": "float32"}}, "gamma_initializer": {"class_name": "Ones", "config": {"dtype": "float32"}}, "moving_mean_initializer": {"class_name": "Zeros", "config": {"dtype": "float32"}}, "moving_variance_initializer": {"class_name": "Ones", "config": {"dtype": "float32"}}, "beta_regularizer": null, "gamma_regularizer": null, "beta_constraint": null, "gamma_constraint": null}, "inbound_nodes": [[["conv2d_42", 0, 0, {}]]]}, {"name": "lambda_42", "class_name": "Lambda", "config": {"name": "lambda_42", "trainable": true, "dtype": "float32", "function": ["4wEAAAAAAAAAAQAAAAYAAABTAAAAcyAAAAB8AHQAagF0AGoCagNkAXQAagR8AIMBFwCDAYMBFABT\nACkCTukBAAAAKQXaAnRm2gR0YW5o2gRtYXRo2gNsb2faA2V4cCkB2gF4qQByCAAAAPo5L2hvbWUv\nYjkyMDQwNS9naXQvdGVuc29yZmxvdy15b2xvdjQtdGZsaXRlL2NvcmUvY29tbW9uLnB52gg8bGFt\nYmRhPj4AAADzAAAAAA==\n", null, null], "function_type": "lambda", "module": "core.common", "output_shape": null, "output_shape_type": "raw", "output_shape_module": null, "arguments": {}}, "inbound_nodes": [[["batch_normalization_42", 0, 0, {}]]]}, {"name": "tf_op_layer_add_11", "class_name": "TensorFlowOpLayer", "config": {"name": "add_11", "trainable": true, "dtype": null, "node_def": {"name": "add_11", "op": "AddV2", "input": ["lambda_40/mul", "lambda_42/mul"], "attr": {"T": {"type": "DT_FLOAT"}}}, "constants": {}}, "inbound_nodes": [[["lambda_40", 0, 0, {}], ["lambda_42", 0, 0, {}]]]}, {"name": "conv2d_43", "class_name": "Conv2D", "config": {"name": "conv2d_43", "trainable": true, "dtype": "float32", "filters": 256, "kernel_size": [1, 1], "strides": [1, 1], "padding": "same", "data_format": "channels_last", "dilation_rate": [1, 1], "activation": "linear", "use_bias": false, "kernel_initializer": {"class_name": "RandomNormal", "config": {"mean": 0.0, "stddev": 0.01, "seed": null, "dtype": "float32"}}, "bias_initializer": {"class_name": "Constant", "config": {"value": 0.0, "dtype": "float32"}}, "kernel_regularizer": {"class_name": "L1L2", "config": {"l1": 0.0, "l2": 0.0005000000237487257}}, "bias_regularizer": null, "activity_regularizer": null, "kernel_constraint": null, "bias_constraint": null}, "inbound_nodes": [[["tf_op_layer_add_11", 0, 0, {}]]]}, {"name": "batch_normalization_43", "class_name": "BatchNormalization", "config": {"name": "batch_normalization_43", "trainable": true, "dtype": "float32", "axis": [3], "momentum": 0.99, "epsilon": 0.001, "center": true, "scale": true, "beta_initializer": {"class_name": "Zeros", "config": {"dtype": "float32"}}, "gamma_initializer": {"class_name": "Ones", "config": {"dtype": "float32"}}, "moving_mean_initializer": {"class_name": "Zeros", "config": {"dtype": "float32"}}, "moving_variance_initializer": {"class_name": "Ones", "config": {"dtype": "float32"}}, "beta_regularizer": null, "gamma_regularizer": null, "beta_constraint": null, "gamma_constraint": null}, "inbound_nodes": [[["conv2d_43", 0, 0, {}]]]}, {"name": "lambda_43", "class_name": "Lambda", "config": {"name": "lambda_43", "trainable": true, "dtype": "float32", "function": ["4wEAAAAAAAAAAQAAAAYAAABTAAAAcyAAAAB8AHQAagF0AGoCagNkAXQAagR8AIMBFwCDAYMBFABT\nACkCTukBAAAAKQXaAnRm2gR0YW5o2gRtYXRo2gNsb2faA2V4cCkB2gF4qQByCAAAAPo5L2hvbWUv\nYjkyMDQwNS9naXQvdGVuc29yZmxvdy15b2xvdjQtdGZsaXRlL2NvcmUvY29tbW9uLnB52gg8bGFt\nYmRhPj4AAADzAAAAAA==\n", null, null], "function_type": "lambda", "module": "core.common", "output_shape": null, "output_shape_type": "raw", "output_shape_module": null, "arguments": {}}, "inbound_nodes": [[["batch_normalization_43", 0, 0, {}]]]}, {"name": "conv2d_44", "class_name": "Conv2D", "config": {"name": "conv2d_44", "trainable": true, "dtype": "float32", "filters": 256, "kernel_size": [3, 3], "strides": [1, 1], "padding": "same", "data_format": "channels_last", "dilation_rate": [1, 1], "activation": "linear", "use_bias": false, "kernel_initializer": {"class_name": "RandomNormal", "config": {"mean": 0.0, "stddev": 0.01, "seed": null, "dtype": "float32"}}, "bias_initializer": {"class_name": "Constant", "config": {"value": 0.0, "dtype": "float32"}}, "kernel_regularizer": {"class_name": "L1L2", "config": {"l1": 0.0, "l2": 0.0005000000237487257}}, "bias_regularizer": null, "activity_regularizer": null, "kernel_constraint": null, "bias_constraint": null}, "inbound_nodes": [[["lambda_43", 0, 0, {}]]]}, {"name": "batch_normalization_44", "class_name": "BatchNormalization", "config": {"name": "batch_normalization_44", "trainable": true, "dtype": "float32", "axis": [3], "momentum": 0.99, "epsilon": 0.001, "center": true, "scale": true, "beta_initializer": {"class_name": "Zeros", "config": {"dtype": "float32"}}, "gamma_initializer": {"class_name": "Ones", "config": {"dtype": "float32"}}, "moving_mean_initializer": {"class_name": "Zeros", "config": {"dtype": "float32"}}, "moving_variance_initializer": {"class_name": "Ones", "config": {"dtype": "float32"}}, "beta_regularizer": null, "gamma_regularizer": null, "beta_constraint": null, "gamma_constraint": null}, "inbound_nodes": [[["conv2d_44", 0, 0, {}]]]}, {"name": "lambda_44", "class_name": "Lambda", "config": {"name": "lambda_44", "trainable": true, "dtype": "float32", "function": ["4wEAAAAAAAAAAQAAAAYAAABTAAAAcyAAAAB8AHQAagF0AGoCagNkAXQAagR8AIMBFwCDAYMBFABT\nACkCTukBAAAAKQXaAnRm2gR0YW5o2gRtYXRo2gNsb2faA2V4cCkB2gF4qQByCAAAAPo5L2hvbWUv\nYjkyMDQwNS9naXQvdGVuc29yZmxvdy15b2xvdjQtdGZsaXRlL2NvcmUvY29tbW9uLnB52gg8bGFt\nYmRhPj4AAADzAAAAAA==\n", null, null], "function_type": "lambda", "module": "core.common", "output_shape": null, "output_shape_type": "raw", "output_shape_module": null, "arguments": {}}, "inbound_nodes": [[["batch_normalization_44", 0, 0, {}]]]}, {"name": "tf_op_layer_add_12", "class_name": "TensorFlowOpLayer", "config": {"name": "add_12", "trainable": true, "dtype": null, "node_def": {"name": "add_12", "op": "AddV2", "input": ["add_11", "lambda_44/mul"], "attr": {"T": {"type": "DT_FLOAT"}}}, "constants": {}}, "inbound_nodes": [[["tf_op_layer_add_11", 0, 0, {}], ["lambda_44", 0, 0, {}]]]}, {"name": "conv2d_45", "class_name": "Conv2D", "config": {"name": "conv2d_45", "trainable": true, "dtype": "float32", "filters": 256, "kernel_size": [1, 1], "strides": [1, 1], "padding": "same", "data_format": "channels_last", "dilation_rate": [1, 1], "activation": "linear", "use_bias": false, "kernel_initializer": {"class_name": "RandomNormal", "config": {"mean": 0.0, "stddev": 0.01, "seed": null, "dtype": "float32"}}, "bias_initializer": {"class_name": "Constant", "config": {"value": 0.0, "dtype": "float32"}}, "kernel_regularizer": {"class_name": "L1L2", "config": {"l1": 0.0, "l2": 0.0005000000237487257}}, "bias_regularizer": null, "activity_regularizer": null, "kernel_constraint": null, "bias_constraint": null}, "inbound_nodes": [[["tf_op_layer_add_12", 0, 0, {}]]]}, {"name": "batch_normalization_45", "class_name": "BatchNormalization", "config": {"name": "batch_normalization_45", "trainable": true, "dtype": "float32", "axis": [3], "momentum": 0.99, "epsilon": 0.001, "center": true, "scale": true, "beta_initializer": {"class_name": "Zeros", "config": {"dtype": "float32"}}, "gamma_initializer": {"class_name": "Ones", "config": {"dtype": "float32"}}, "moving_mean_initializer": {"class_name": "Zeros", "config": {"dtype": "float32"}}, "moving_variance_initializer": {"class_name": "Ones", "config": {"dtype": "float32"}}, "beta_regularizer": null, "gamma_regularizer": null, "beta_constraint": null, "gamma_constraint": null}, "inbound_nodes": [[["conv2d_45", 0, 0, {}]]]}, {"name": "lambda_45", "class_name": "Lambda", "config": {"name": "lambda_45", "trainable": true, "dtype": "float32", "function": ["4wEAAAAAAAAAAQAAAAYAAABTAAAAcyAAAAB8AHQAagF0AGoCagNkAXQAagR8AIMBFwCDAYMBFABT\nACkCTukBAAAAKQXaAnRm2gR0YW5o2gRtYXRo2gNsb2faA2V4cCkB2gF4qQByCAAAAPo5L2hvbWUv\nYjkyMDQwNS9naXQvdGVuc29yZmxvdy15b2xvdjQtdGZsaXRlL2NvcmUvY29tbW9uLnB52gg8bGFt\nYmRhPj4AAADzAAAAAA==\n", null, null], "function_type": "lambda", "module": "core.common", "output_shape": null, "output_shape_type": "raw", "output_shape_module": null, "arguments": {}}, "inbound_nodes": [[["batch_normalization_45", 0, 0, {}]]]}, {"name": "conv2d_46", "class_name": "Conv2D", "config": {"name": "conv2d_46", "trainable": true, "dtype": "float32", "filters": 256, "kernel_size": [3, 3], "strides": [1, 1], "padding": "same", "data_format": "channels_last", "dilation_rate": [1, 1], "activation": "linear", "use_bias": false, "kernel_initializer": {"class_name": "RandomNormal", "config": {"mean": 0.0, "stddev": 0.01, "seed": null, "dtype": "float32"}}, "bias_initializer": {"class_name": "Constant", "config": {"value": 0.0, "dtype": "float32"}}, "kernel_regularizer": {"class_name": "L1L2", "config": {"l1": 0.0, "l2": 0.0005000000237487257}}, "bias_regularizer": null, "activity_regularizer": null, "kernel_constraint": null, "bias_constraint": null}, "inbound_nodes": [[["lambda_45", 0, 0, {}]]]}, {"name": "batch_normalization_46", "class_name": "BatchNormalization", "config": {"name": "batch_normalization_46", "trainable": true, "dtype": "float32", "axis": [3], "momentum": 0.99, "epsilon": 0.001, "center": true, "scale": true, "beta_initializer": {"class_name": "Zeros", "config": {"dtype": "float32"}}, "gamma_initializer": {"class_name": "Ones", "config": {"dtype": "float32"}}, "moving_mean_initializer": {"class_name": "Zeros", "config": {"dtype": "float32"}}, "moving_variance_initializer": {"class_name": "Ones", "config": {"dtype": "float32"}}, "beta_regularizer": null, "gamma_regularizer": null, "beta_constraint": null, "gamma_constraint": null}, "inbound_nodes": [[["conv2d_46", 0, 0, {}]]]}, {"name": "lambda_46", "class_name": "Lambda", "config": {"name": "lambda_46", "trainable": true, "dtype": "float32", "function": ["4wEAAAAAAAAAAQAAAAYAAABTAAAAcyAAAAB8AHQAagF0AGoCagNkAXQAagR8AIMBFwCDAYMBFABT\nACkCTukBAAAAKQXaAnRm2gR0YW5o2gRtYXRo2gNsb2faA2V4cCkB2gF4qQByCAAAAPo5L2hvbWUv\nYjkyMDQwNS9naXQvdGVuc29yZmxvdy15b2xvdjQtdGZsaXRlL2NvcmUvY29tbW9uLnB52gg8bGFt\nYmRhPj4AAADzAAAAAA==\n", null, null], "function_type": "lambda", "module": "core.common", "output_shape": null, "output_shape_type": "raw", "output_shape_module": null, "arguments": {}}, "inbound_nodes": [[["batch_normalization_46", 0, 0, {}]]]}, {"name": "tf_op_layer_add_13", "class_name": "TensorFlowOpLayer", "config": {"name": "add_13", "trainable": true, "dtype": null, "node_def": {"name": "add_13", "op": "AddV2", "input": ["add_12", "lambda_46/mul"], "attr": {"T": {"type": "DT_FLOAT"}}}, "constants": {}}, "inbound_nodes": [[["tf_op_layer_add_12", 0, 0, {}], ["lambda_46", 0, 0, {}]]]}, {"name": "conv2d_47", "class_name": "Conv2D", "config": {"name": "conv2d_47", "trainable": true, "dtype": "float32", "filters": 256, "kernel_size": [1, 1], "strides": [1, 1], "padding": "same", "data_format": "channels_last", "dilation_rate": [1, 1], "activation": "linear", "use_bias": false, "kernel_initializer": {"class_name": "RandomNormal", "config": {"mean": 0.0, "stddev": 0.01, "seed": null, "dtype": "float32"}}, "bias_initializer": {"class_name": "Constant", "config": {"value": 0.0, "dtype": "float32"}}, "kernel_regularizer": {"class_name": "L1L2", "config": {"l1": 0.0, "l2": 0.0005000000237487257}}, "bias_regularizer": null, "activity_regularizer": null, "kernel_constraint": null, "bias_constraint": null}, "inbound_nodes": [[["tf_op_layer_add_13", 0, 0, {}]]]}, {"name": "batch_normalization_47", "class_name": "BatchNormalization", "config": {"name": "batch_normalization_47", "trainable": true, "dtype": "float32", "axis": [3], "momentum": 0.99, "epsilon": 0.001, "center": true, "scale": true, "beta_initializer": {"class_name": "Zeros", "config": {"dtype": "float32"}}, "gamma_initializer": {"class_name": "Ones", "config": {"dtype": "float32"}}, "moving_mean_initializer": {"class_name": "Zeros", "config": {"dtype": "float32"}}, "moving_variance_initializer": {"class_name": "Ones", "config": {"dtype": "float32"}}, "beta_regularizer": null, "gamma_regularizer": null, "beta_constraint": null, "gamma_constraint": null}, "inbound_nodes": [[["conv2d_47", 0, 0, {}]]]}, {"name": "lambda_47", "class_name": "Lambda", "config": {"name": "lambda_47", "trainable": true, "dtype": "float32", "function": ["4wEAAAAAAAAAAQAAAAYAAABTAAAAcyAAAAB8AHQAagF0AGoCagNkAXQAagR8AIMBFwCDAYMBFABT\nACkCTukBAAAAKQXaAnRm2gR0YW5o2gRtYXRo2gNsb2faA2V4cCkB2gF4qQByCAAAAPo5L2hvbWUv\nYjkyMDQwNS9naXQvdGVuc29yZmxvdy15b2xvdjQtdGZsaXRlL2NvcmUvY29tbW9uLnB52gg8bGFt\nYmRhPj4AAADzAAAAAA==\n", null, null], "function_type": "lambda", "module": "core.common", "output_shape": null, "output_shape_type": "raw", "output_shape_module": null, "arguments": {}}, "inbound_nodes": [[["batch_normalization_47", 0, 0, {}]]]}, {"name": "conv2d_48", "class_name": "Conv2D", "config": {"name": "conv2d_48", "trainable": true, "dtype": "float32", "filters": 256, "kernel_size": [3, 3], "strides": [1, 1], "padding": "same", "data_format": "channels_last", "dilation_rate": [1, 1], "activation": "linear", "use_bias": false, "kernel_initializer": {"class_name": "RandomNormal", "config": {"mean": 0.0, "stddev": 0.01, "seed": null, "dtype": "float32"}}, "bias_initializer": {"class_name": "Constant", "config": {"value": 0.0, "dtype": "float32"}}, "kernel_regularizer": {"class_name": "L1L2", "config": {"l1": 0.0, "l2": 0.0005000000237487257}}, "bias_regularizer": null, "activity_regularizer": null, "kernel_constraint": null, "bias_constraint": null}, "inbound_nodes": [[["lambda_47", 0, 0, {}]]]}, {"name": "batch_normalization_48", "class_name": "BatchNormalization", "config": {"name": "batch_normalization_48", "trainable": true, "dtype": "float32", "axis": [3], "momentum": 0.99, "epsilon": 0.001, "center": true, "scale": true, "beta_initializer": {"class_name": "Zeros", "config": {"dtype": "float32"}}, "gamma_initializer": {"class_name": "Ones", "config": {"dtype": "float32"}}, "moving_mean_initializer": {"class_name": "Zeros", "config": {"dtype": "float32"}}, "moving_variance_initializer": {"class_name": "Ones", "config": {"dtype": "float32"}}, "beta_regularizer": null, "gamma_regularizer": null, "beta_constraint": null, "gamma_constraint": null}, "inbound_nodes": [[["conv2d_48", 0, 0, {}]]]}, {"name": "lambda_48", "class_name": "Lambda", "config": {"name": "lambda_48", "trainable": true, "dtype": "float32", "function": ["4wEAAAAAAAAAAQAAAAYAAABTAAAAcyAAAAB8AHQAagF0AGoCagNkAXQAagR8AIMBFwCDAYMBFABT\nACkCTukBAAAAKQXaAnRm2gR0YW5o2gRtYXRo2gNsb2faA2V4cCkB2gF4qQByCAAAAPo5L2hvbWUv\nYjkyMDQwNS9naXQvdGVuc29yZmxvdy15b2xvdjQtdGZsaXRlL2NvcmUvY29tbW9uLnB52gg8bGFt\nYmRhPj4AAADzAAAAAA==\n", null, null], "function_type": "lambda", "module": "core.common", "output_shape": null, "output_shape_type": "raw", "output_shape_module": null, "arguments": {}}, "inbound_nodes": [[["batch_normalization_48", 0, 0, {}]]]}, {"name": "tf_op_layer_add_14", "class_name": "TensorFlowOpLayer", "config": {"name": "add_14", "trainable": true, "dtype": null, "node_def": {"name": "add_14", "op": "AddV2", "input": ["add_13", "lambda_48/mul"], "attr": {"T": {"type": "DT_FLOAT"}}}, "constants": {}}, "inbound_nodes": [[["tf_op_layer_add_13", 0, 0, {}], ["lambda_48", 0, 0, {}]]]}, {"name": "conv2d_49", "class_name": "Conv2D", "config": {"name": "conv2d_49", "trainable": true, "dtype": "float32", "filters": 256, "kernel_size": [1, 1], "strides": [1, 1], "padding": "same", "data_format": "channels_last", "dilation_rate": [1, 1], "activation": "linear", "use_bias": false, "kernel_initializer": {"class_name": "RandomNormal", "config": {"mean": 0.0, "stddev": 0.01, "seed": null, "dtype": "float32"}}, "bias_initializer": {"class_name": "Constant", "config": {"value": 0.0, "dtype": "float32"}}, "kernel_regularizer": {"class_name": "L1L2", "config": {"l1": 0.0, "l2": 0.0005000000237487257}}, "bias_regularizer": null, "activity_regularizer": null, "kernel_constraint": null, "bias_constraint": null}, "inbound_nodes": [[["tf_op_layer_add_14", 0, 0, {}]]]}, {"name": "batch_normalization_49", "class_name": "BatchNormalization", "config": {"name": "batch_normalization_49", "trainable": true, "dtype": "float32", "axis": [3], "momentum": 0.99, "epsilon": 0.001, "center": true, "scale": true, "beta_initializer": {"class_name": "Zeros", "config": {"dtype": "float32"}}, "gamma_initializer": {"class_name": "Ones", "config": {"dtype": "float32"}}, "moving_mean_initializer": {"class_name": "Zeros", "config": {"dtype": "float32"}}, "moving_variance_initializer": {"class_name": "Ones", "config": {"dtype": "float32"}}, "beta_regularizer": null, "gamma_regularizer": null, "beta_constraint": null, "gamma_constraint": null}, "inbound_nodes": [[["conv2d_49", 0, 0, {}]]]}, {"name": "lambda_49", "class_name": "Lambda", "config": {"name": "lambda_49", "trainable": true, "dtype": "float32", "function": ["4wEAAAAAAAAAAQAAAAYAAABTAAAAcyAAAAB8AHQAagF0AGoCagNkAXQAagR8AIMBFwCDAYMBFABT\nACkCTukBAAAAKQXaAnRm2gR0YW5o2gRtYXRo2gNsb2faA2V4cCkB2gF4qQByCAAAAPo5L2hvbWUv\nYjkyMDQwNS9naXQvdGVuc29yZmxvdy15b2xvdjQtdGZsaXRlL2NvcmUvY29tbW9uLnB52gg8bGFt\nYmRhPj4AAADzAAAAAA==\n", null, null], "function_type": "lambda", "module": "core.common", "output_shape": null, "output_shape_type": "raw", "output_shape_module": null, "arguments": {}}, "inbound_nodes": [[["batch_normalization_49", 0, 0, {}]]]}, {"name": "conv2d_50", "class_name": "Conv2D", "config": {"name": "conv2d_50", "trainable": true, "dtype": "float32", "filters": 256, "kernel_size": [3, 3], "strides": [1, 1], "padding": "same", "data_format": "channels_last", "dilation_rate": [1, 1], "activation": "linear", "use_bias": false, "kernel_initializer": {"class_name": "RandomNormal", "config": {"mean": 0.0, "stddev": 0.01, "seed": null, "dtype": "float32"}}, "bias_initializer": {"class_name": "Constant", "config": {"value": 0.0, "dtype": "float32"}}, "kernel_regularizer": {"class_name": "L1L2", "config": {"l1": 0.0, "l2": 0.0005000000237487257}}, "bias_regularizer": null, "activity_regularizer": null, "kernel_constraint": null, "bias_constraint": null}, "inbound_nodes": [[["lambda_49", 0, 0, {}]]]}, {"name": "batch_normalization_50", "class_name": "BatchNormalization", "config": {"name": "batch_normalization_50", "trainable": true, "dtype": "float32", "axis": [3], "momentum": 0.99, "epsilon": 0.001, "center": true, "scale": true, "beta_initializer": {"class_name": "Zeros", "config": {"dtype": "float32"}}, "gamma_initializer": {"class_name": "Ones", "config": {"dtype": "float32"}}, "moving_mean_initializer": {"class_name": "Zeros", "config": {"dtype": "float32"}}, "moving_variance_initializer": {"class_name": "Ones", "config": {"dtype": "float32"}}, "beta_regularizer": null, "gamma_regularizer": null, "beta_constraint": null, "gamma_constraint": null}, "inbound_nodes": [[["conv2d_50", 0, 0, {}]]]}, {"name": "lambda_50", "class_name": "Lambda", "config": {"name": "lambda_50", "trainable": true, "dtype": "float32", "function": ["4wEAAAAAAAAAAQAAAAYAAABTAAAAcyAAAAB8AHQAagF0AGoCagNkAXQAagR8AIMBFwCDAYMBFABT\nACkCTukBAAAAKQXaAnRm2gR0YW5o2gRtYXRo2gNsb2faA2V4cCkB2gF4qQByCAAAAPo5L2hvbWUv\nYjkyMDQwNS9naXQvdGVuc29yZmxvdy15b2xvdjQtdGZsaXRlL2NvcmUvY29tbW9uLnB52gg8bGFt\nYmRhPj4AAADzAAAAAA==\n", null, null], "function_type": "lambda", "module": "core.common", "output_shape": null, "output_shape_type": "raw", "output_shape_module": null, "arguments": {}}, "inbound_nodes": [[["batch_normalization_50", 0, 0, {}]]]}, {"name": "tf_op_layer_add_15", "class_name": "TensorFlowOpLayer", "config": {"name": "add_15", "trainable": true, "dtype": null, "node_def": {"name": "add_15", "op": "AddV2", "input": ["add_14", "lambda_50/mul"], "attr": {"T": {"type": "DT_FLOAT"}}}, "constants": {}}, "inbound_nodes": [[["tf_op_layer_add_14", 0, 0, {}], ["lambda_50", 0, 0, {}]]]}, {"name": "conv2d_51", "class_name": "Conv2D", "config": {"name": "conv2d_51", "trainable": true, "dtype": "float32", "filters": 256, "kernel_size": [1, 1], "strides": [1, 1], "padding": "same", "data_format": "channels_last", "dilation_rate": [1, 1], "activation": "linear", "use_bias": false, "kernel_initializer": {"class_name": "RandomNormal", "config": {"mean": 0.0, "stddev": 0.01, "seed": null, "dtype": "float32"}}, "bias_initializer": {"class_name": "Constant", "config": {"value": 0.0, "dtype": "float32"}}, "kernel_regularizer": {"class_name": "L1L2", "config": {"l1": 0.0, "l2": 0.0005000000237487257}}, "bias_regularizer": null, "activity_regularizer": null, "kernel_constraint": null, "bias_constraint": null}, "inbound_nodes": [[["tf_op_layer_add_15", 0, 0, {}]]]}, {"name": "batch_normalization_51", "class_name": "BatchNormalization", "config": {"name": "batch_normalization_51", "trainable": true, "dtype": "float32", "axis": [3], "momentum": 0.99, "epsilon": 0.001, "center": true, "scale": true, "beta_initializer": {"class_name": "Zeros", "config": {"dtype": "float32"}}, "gamma_initializer": {"class_name": "Ones", "config": {"dtype": "float32"}}, "moving_mean_initializer": {"class_name": "Zeros", "config": {"dtype": "float32"}}, "moving_variance_initializer": {"class_name": "Ones", "config": {"dtype": "float32"}}, "beta_regularizer": null, "gamma_regularizer": null, "beta_constraint": null, "gamma_constraint": null}, "inbound_nodes": [[["conv2d_51", 0, 0, {}]]]}, {"name": "lambda_51", "class_name": "Lambda", "config": {"name": "lambda_51", "trainable": true, "dtype": "float32", "function": ["4wEAAAAAAAAAAQAAAAYAAABTAAAAcyAAAAB8AHQAagF0AGoCagNkAXQAagR8AIMBFwCDAYMBFABT\nACkCTukBAAAAKQXaAnRm2gR0YW5o2gRtYXRo2gNsb2faA2V4cCkB2gF4qQByCAAAAPo5L2hvbWUv\nYjkyMDQwNS9naXQvdGVuc29yZmxvdy15b2xvdjQtdGZsaXRlL2NvcmUvY29tbW9uLnB52gg8bGFt\nYmRhPj4AAADzAAAAAA==\n", null, null], "function_type": "lambda", "module": "core.common", "output_shape": null, "output_shape_type": "raw", "output_shape_module": null, "arguments": {}}, "inbound_nodes": [[["batch_normalization_51", 0, 0, {}]]]}, {"name": "conv2d_52", "class_name": "Conv2D", "config": {"name": "conv2d_52", "trainable": true, "dtype": "float32", "filters": 256, "kernel_size": [3, 3], "strides": [1, 1], "padding": "same", "data_format": "channels_last", "dilation_rate": [1, 1], "activation": "linear", "use_bias": false, "kernel_initializer": {"class_name": "RandomNormal", "config": {"mean": 0.0, "stddev": 0.01, "seed": null, "dtype": "float32"}}, "bias_initializer": {"class_name": "Constant", "config": {"value": 0.0, "dtype": "float32"}}, "kernel_regularizer": {"class_name": "L1L2", "config": {"l1": 0.0, "l2": 0.0005000000237487257}}, "bias_regularizer": null, "activity_regularizer": null, "kernel_constraint": null, "bias_constraint": null}, "inbound_nodes": [[["lambda_51", 0, 0, {}]]]}, {"name": "batch_normalization_52", "class_name": "BatchNormalization", "config": {"name": "batch_normalization_52", "trainable": true, "dtype": "float32", "axis": [3], "momentum": 0.99, "epsilon": 0.001, "center": true, "scale": true, "beta_initializer": {"class_name": "Zeros", "config": {"dtype": "float32"}}, "gamma_initializer": {"class_name": "Ones", "config": {"dtype": "float32"}}, "moving_mean_initializer": {"class_name": "Zeros", "config": {"dtype": "float32"}}, "moving_variance_initializer": {"class_name": "Ones", "config": {"dtype": "float32"}}, "beta_regularizer": null, "gamma_regularizer": null, "beta_constraint": null, "gamma_constraint": null}, "inbound_nodes": [[["conv2d_52", 0, 0, {}]]]}, {"name": "lambda_52", "class_name": "Lambda", "config": {"name": "lambda_52", "trainable": true, "dtype": "float32", "function": ["4wEAAAAAAAAAAQAAAAYAAABTAAAAcyAAAAB8AHQAagF0AGoCagNkAXQAagR8AIMBFwCDAYMBFABT\nACkCTukBAAAAKQXaAnRm2gR0YW5o2gRtYXRo2gNsb2faA2V4cCkB2gF4qQByCAAAAPo5L2hvbWUv\nYjkyMDQwNS9naXQvdGVuc29yZmxvdy15b2xvdjQtdGZsaXRlL2NvcmUvY29tbW9uLnB52gg8bGFt\nYmRhPj4AAADzAAAAAA==\n", null, null], "function_type": "lambda", "module": "core.common", "output_shape": null, "output_shape_type": "raw", "output_shape_module": null, "arguments": {}}, "inbound_nodes": [[["batch_normalization_52", 0, 0, {}]]]}, {"name": "tf_op_layer_add_16", "class_name": "TensorFlowOpLayer", "config": {"name": "add_16", "trainable": true, "dtype": null, "node_def": {"name": "add_16", "op": "AddV2", "input": ["add_15", "lambda_52/mul"], "attr": {"T": {"type": "DT_FLOAT"}}}, "constants": {}}, "inbound_nodes": [[["tf_op_layer_add_15", 0, 0, {}], ["lambda_52", 0, 0, {}]]]}, {"name": "conv2d_53", "class_name": "Conv2D", "config": {"name": "conv2d_53", "trainable": true, "dtype": "float32", "filters": 256, "kernel_size": [1, 1], "strides": [1, 1], "padding": "same", "data_format": "channels_last", "dilation_rate": [1, 1], "activation": "linear", "use_bias": false, "kernel_initializer": {"class_name": "RandomNormal", "config": {"mean": 0.0, "stddev": 0.01, "seed": null, "dtype": "float32"}}, "bias_initializer": {"class_name": "Constant", "config": {"value": 0.0, "dtype": "float32"}}, "kernel_regularizer": {"class_name": "L1L2", "config": {"l1": 0.0, "l2": 0.0005000000237487257}}, "bias_regularizer": null, "activity_regularizer": null, "kernel_constraint": null, "bias_constraint": null}, "inbound_nodes": [[["tf_op_layer_add_16", 0, 0, {}]]]}, {"name": "batch_normalization_53", "class_name": "BatchNormalization", "config": {"name": "batch_normalization_53", "trainable": true, "dtype": "float32", "axis": [3], "momentum": 0.99, "epsilon": 0.001, "center": true, "scale": true, "beta_initializer": {"class_name": "Zeros", "config": {"dtype": "float32"}}, "gamma_initializer": {"class_name": "Ones", "config": {"dtype": "float32"}}, "moving_mean_initializer": {"class_name": "Zeros", "config": {"dtype": "float32"}}, "moving_variance_initializer": {"class_name": "Ones", "config": {"dtype": "float32"}}, "beta_regularizer": null, "gamma_regularizer": null, "beta_constraint": null, "gamma_constraint": null}, "inbound_nodes": [[["conv2d_53", 0, 0, {}]]]}, {"name": "lambda_53", "class_name": "Lambda", "config": {"name": "lambda_53", "trainable": true, "dtype": "float32", "function": ["4wEAAAAAAAAAAQAAAAYAAABTAAAAcyAAAAB8AHQAagF0AGoCagNkAXQAagR8AIMBFwCDAYMBFABT\nACkCTukBAAAAKQXaAnRm2gR0YW5o2gRtYXRo2gNsb2faA2V4cCkB2gF4qQByCAAAAPo5L2hvbWUv\nYjkyMDQwNS9naXQvdGVuc29yZmxvdy15b2xvdjQtdGZsaXRlL2NvcmUvY29tbW9uLnB52gg8bGFt\nYmRhPj4AAADzAAAAAA==\n", null, null], "function_type": "lambda", "module": "core.common", "output_shape": null, "output_shape_type": "raw", "output_shape_module": null, "arguments": {}}, "inbound_nodes": [[["batch_normalization_53", 0, 0, {}]]]}, {"name": "conv2d_54", "class_name": "Conv2D", "config": {"name": "conv2d_54", "trainable": true, "dtype": "float32", "filters": 256, "kernel_size": [3, 3], "strides": [1, 1], "padding": "same", "data_format": "channels_last", "dilation_rate": [1, 1], "activation": "linear", "use_bias": false, "kernel_initializer": {"class_name": "RandomNormal", "config": {"mean": 0.0, "stddev": 0.01, "seed": null, "dtype": "float32"}}, "bias_initializer": {"class_name": "Constant", "config": {"value": 0.0, "dtype": "float32"}}, "kernel_regularizer": {"class_name": "L1L2", "config": {"l1": 0.0, "l2": 0.0005000000237487257}}, "bias_regularizer": null, "activity_regularizer": null, "kernel_constraint": null, "bias_constraint": null}, "inbound_nodes": [[["lambda_53", 0, 0, {}]]]}, {"name": "batch_normalization_54", "class_name": "BatchNormalization", "config": {"name": "batch_normalization_54", "trainable": true, "dtype": "float32", "axis": [3], "momentum": 0.99, "epsilon": 0.001, "center": true, "scale": true, "beta_initializer": {"class_name": "Zeros", "config": {"dtype": "float32"}}, "gamma_initializer": {"class_name": "Ones", "config": {"dtype": "float32"}}, "moving_mean_initializer": {"class_name": "Zeros", "config": {"dtype": "float32"}}, "moving_variance_initializer": {"class_name": "Ones", "config": {"dtype": "float32"}}, "beta_regularizer": null, "gamma_regularizer": null, "beta_constraint": null, "gamma_constraint": null}, "inbound_nodes": [[["conv2d_54", 0, 0, {}]]]}, {"name": "lambda_54", "class_name": "Lambda", "config": {"name": "lambda_54", "trainable": true, "dtype": "float32", "function": ["4wEAAAAAAAAAAQAAAAYAAABTAAAAcyAAAAB8AHQAagF0AGoCagNkAXQAagR8AIMBFwCDAYMBFABT\nACkCTukBAAAAKQXaAnRm2gR0YW5o2gRtYXRo2gNsb2faA2V4cCkB2gF4qQByCAAAAPo5L2hvbWUv\nYjkyMDQwNS9naXQvdGVuc29yZmxvdy15b2xvdjQtdGZsaXRlL2NvcmUvY29tbW9uLnB52gg8bGFt\nYmRhPj4AAADzAAAAAA==\n", null, null], "function_type": "lambda", "module": "core.common", "output_shape": null, "output_shape_type": "raw", "output_shape_module": null, "arguments": {}}, "inbound_nodes": [[["batch_normalization_54", 0, 0, {}]]]}, {"name": "tf_op_layer_add_17", "class_name": "TensorFlowOpLayer", "config": {"name": "add_17", "trainable": true, "dtype": null, "node_def": {"name": "add_17", "op": "AddV2", "input": ["add_16", "lambda_54/mul"], "attr": {"T": {"type": "DT_FLOAT"}}}, "constants": {}}, "inbound_nodes": [[["tf_op_layer_add_16", 0, 0, {}], ["lambda_54", 0, 0, {}]]]}, {"name": "conv2d_55", "class_name": "Conv2D", "config": {"name": "conv2d_55", "trainable": true, "dtype": "float32", "filters": 256, "kernel_size": [1, 1], "strides": [1, 1], "padding": "same", "data_format": "channels_last", "dilation_rate": [1, 1], "activation": "linear", "use_bias": false, "kernel_initializer": {"class_name": "RandomNormal", "config": {"mean": 0.0, "stddev": 0.01, "seed": null, "dtype": "float32"}}, "bias_initializer": {"class_name": "Constant", "config": {"value": 0.0, "dtype": "float32"}}, "kernel_regularizer": {"class_name": "L1L2", "config": {"l1": 0.0, "l2": 0.0005000000237487257}}, "bias_regularizer": null, "activity_regularizer": null, "kernel_constraint": null, "bias_constraint": null}, "inbound_nodes": [[["tf_op_layer_add_17", 0, 0, {}]]]}, {"name": "batch_normalization_55", "class_name": "BatchNormalization", "config": {"name": "batch_normalization_55", "trainable": true, "dtype": "float32", "axis": [3], "momentum": 0.99, "epsilon": 0.001, "center": true, "scale": true, "beta_initializer": {"class_name": "Zeros", "config": {"dtype": "float32"}}, "gamma_initializer": {"class_name": "Ones", "config": {"dtype": "float32"}}, "moving_mean_initializer": {"class_name": "Zeros", "config": {"dtype": "float32"}}, "moving_variance_initializer": {"class_name": "Ones", "config": {"dtype": "float32"}}, "beta_regularizer": null, "gamma_regularizer": null, "beta_constraint": null, "gamma_constraint": null}, "inbound_nodes": [[["conv2d_55", 0, 0, {}]]]}, {"name": "lambda_55", "class_name": "Lambda", "config": {"name": "lambda_55", "trainable": true, "dtype": "float32", "function": ["4wEAAAAAAAAAAQAAAAYAAABTAAAAcyAAAAB8AHQAagF0AGoCagNkAXQAagR8AIMBFwCDAYMBFABT\nACkCTukBAAAAKQXaAnRm2gR0YW5o2gRtYXRo2gNsb2faA2V4cCkB2gF4qQByCAAAAPo5L2hvbWUv\nYjkyMDQwNS9naXQvdGVuc29yZmxvdy15b2xvdjQtdGZsaXRlL2NvcmUvY29tbW9uLnB52gg8bGFt\nYmRhPj4AAADzAAAAAA==\n", null, null], "function_type": "lambda", "module": "core.common", "output_shape": null, "output_shape_type": "raw", "output_shape_module": null, "arguments": {}}, "inbound_nodes": [[["batch_normalization_55", 0, 0, {}]]]}, {"name": "conv2d_56", "class_name": "Conv2D", "config": {"name": "conv2d_56", "trainable": true, "dtype": "float32", "filters": 256, "kernel_size": [3, 3], "strides": [1, 1], "padding": "same", "data_format": "channels_last", "dilation_rate": [1, 1], "activation": "linear", "use_bias": false, "kernel_initializer": {"class_name": "RandomNormal", "config": {"mean": 0.0, "stddev": 0.01, "seed": null, "dtype": "float32"}}, "bias_initializer": {"class_name": "Constant", "config": {"value": 0.0, "dtype": "float32"}}, "kernel_regularizer": {"class_name": "L1L2", "config": {"l1": 0.0, "l2": 0.0005000000237487257}}, "bias_regularizer": null, "activity_regularizer": null, "kernel_constraint": null, "bias_constraint": null}, "inbound_nodes": [[["lambda_55", 0, 0, {}]]]}, {"name": "batch_normalization_56", "class_name": "BatchNormalization", "config": {"name": "batch_normalization_56", "trainable": true, "dtype": "float32", "axis": [3], "momentum": 0.99, "epsilon": 0.001, "center": true, "scale": true, "beta_initializer": {"class_name": "Zeros", "config": {"dtype": "float32"}}, "gamma_initializer": {"class_name": "Ones", "config": {"dtype": "float32"}}, "moving_mean_initializer": {"class_name": "Zeros", "config": {"dtype": "float32"}}, "moving_variance_initializer": {"class_name": "Ones", "config": {"dtype": "float32"}}, "beta_regularizer": null, "gamma_regularizer": null, "beta_constraint": null, "gamma_constraint": null}, "inbound_nodes": [[["conv2d_56", 0, 0, {}]]]}, {"name": "lambda_56", "class_name": "Lambda", "config": {"name": "lambda_56", "trainable": true, "dtype": "float32", "function": ["4wEAAAAAAAAAAQAAAAYAAABTAAAAcyAAAAB8AHQAagF0AGoCagNkAXQAagR8AIMBFwCDAYMBFABT\nACkCTukBAAAAKQXaAnRm2gR0YW5o2gRtYXRo2gNsb2faA2V4cCkB2gF4qQByCAAAAPo5L2hvbWUv\nYjkyMDQwNS9naXQvdGVuc29yZmxvdy15b2xvdjQtdGZsaXRlL2NvcmUvY29tbW9uLnB52gg8bGFt\nYmRhPj4AAADzAAAAAA==\n", null, null], "function_type": "lambda", "module": "core.common", "output_shape": null, "output_shape_type": "raw", "output_shape_module": null, "arguments": {}}, "inbound_nodes": [[["batch_normalization_56", 0, 0, {}]]]}, {"name": "tf_op_layer_add_18", "class_name": "TensorFlowOpLayer", "config": {"name": "add_18", "trainable": true, "dtype": null, "node_def": {"name": "add_18", "op": "AddV2", "input": ["add_17", "lambda_56/mul"], "attr": {"T": {"type": "DT_FLOAT"}}}, "constants": {}}, "inbound_nodes": [[["tf_op_layer_add_17", 0, 0, {}], ["lambda_56", 0, 0, {}]]]}, {"name": "conv2d_57", "class_name": "Conv2D", "config": {"name": "conv2d_57", "trainable": true, "dtype": "float32", "filters": 256, "kernel_size": [1, 1], "strides": [1, 1], "padding": "same", "data_format": "channels_last", "dilation_rate": [1, 1], "activation": "linear", "use_bias": false, "kernel_initializer": {"class_name": "RandomNormal", "config": {"mean": 0.0, "stddev": 0.01, "seed": null, "dtype": "float32"}}, "bias_initializer": {"class_name": "Constant", "config": {"value": 0.0, "dtype": "float32"}}, "kernel_regularizer": {"class_name": "L1L2", "config": {"l1": 0.0, "l2": 0.0005000000237487257}}, "bias_regularizer": null, "activity_regularizer": null, "kernel_constraint": null, "bias_constraint": null}, "inbound_nodes": [[["tf_op_layer_add_18", 0, 0, {}]]]}, {"name": "conv2d_39", "class_name": "Conv2D", "config": {"name": "conv2d_39", "trainable": true, "dtype": "float32", "filters": 256, "kernel_size": [1, 1], "strides": [1, 1], "padding": "same", "data_format": "channels_last", "dilation_rate": [1, 1], "activation": "linear", "use_bias": false, "kernel_initializer": {"class_name": "RandomNormal", "config": {"mean": 0.0, "stddev": 0.01, "seed": null, "dtype": "float32"}}, "bias_initializer": {"class_name": "Constant", "config": {"value": 0.0, "dtype": "float32"}}, "kernel_regularizer": {"class_name": "L1L2", "config": {"l1": 0.0, "l2": 0.0005000000237487257}}, "bias_regularizer": null, "activity_regularizer": null, "kernel_constraint": null, "bias_constraint": null}, "inbound_nodes": [[["lambda_38", 0, 0, {}]]]}, {"name": "batch_normalization_57", "class_name": "BatchNormalization", "config": {"name": "batch_normalization_57", "trainable": true, "dtype": "float32", "axis": [3], "momentum": 0.99, "epsilon": 0.001, "center": true, "scale": true, "beta_initializer": {"class_name": "Zeros", "config": {"dtype": "float32"}}, "gamma_initializer": {"class_name": "Ones", "config": {"dtype": "float32"}}, "moving_mean_initializer": {"class_name": "Zeros", "config": {"dtype": "float32"}}, "moving_variance_initializer": {"class_name": "Ones", "config": {"dtype": "float32"}}, "beta_regularizer": null, "gamma_regularizer": null, "beta_constraint": null, "gamma_constraint": null}, "inbound_nodes": [[["conv2d_57", 0, 0, {}]]]}, {"name": "batch_normalization_39", "class_name": "BatchNormalization", "config": {"name": "batch_normalization_39", "trainable": true, "dtype": "float32", "axis": [3], "momentum": 0.99, "epsilon": 0.001, "center": true, "scale": true, "beta_initializer": {"class_name": "Zeros", "config": {"dtype": "float32"}}, "gamma_initializer": {"class_name": "Ones", "config": {"dtype": "float32"}}, "moving_mean_initializer": {"class_name": "Zeros", "config": {"dtype": "float32"}}, "moving_variance_initializer": {"class_name": "Ones", "config": {"dtype": "float32"}}, "beta_regularizer": null, "gamma_regularizer": null, "beta_constraint": null, "gamma_constraint": null}, "inbound_nodes": [[["conv2d_39", 0, 0, {}]]]}, {"name": "lambda_57", "class_name": "Lambda", "config": {"name": "lambda_57", "trainable": true, "dtype": "float32", "function": ["4wEAAAAAAAAAAQAAAAYAAABTAAAAcyAAAAB8AHQAagF0AGoCagNkAXQAagR8AIMBFwCDAYMBFABT\nACkCTukBAAAAKQXaAnRm2gR0YW5o2gRtYXRo2gNsb2faA2V4cCkB2gF4qQByCAAAAPo5L2hvbWUv\nYjkyMDQwNS9naXQvdGVuc29yZmxvdy15b2xvdjQtdGZsaXRlL2NvcmUvY29tbW9uLnB52gg8bGFt\nYmRhPj4AAADzAAAAAA==\n", null, null], "function_type": "lambda", "module": "core.common", "output_shape": null, "output_shape_type": "raw", "output_shape_module": null, "arguments": {}}, "inbound_nodes": [[["batch_normalization_57", 0, 0, {}]]]}, {"name": "lambda_39", "class_name": "Lambda", "config": {"name": "lambda_39", "trainable": true, "dtype": "float32", "function": ["4wEAAAAAAAAAAQAAAAYAAABTAAAAcyAAAAB8AHQAagF0AGoCagNkAXQAagR8AIMBFwCDAYMBFABT\nACkCTukBAAAAKQXaAnRm2gR0YW5o2gRtYXRo2gNsb2faA2V4cCkB2gF4qQByCAAAAPo5L2hvbWUv\nYjkyMDQwNS9naXQvdGVuc29yZmxvdy15b2xvdjQtdGZsaXRlL2NvcmUvY29tbW9uLnB52gg8bGFt\nYmRhPj4AAADzAAAAAA==\n", null, null], "function_type": "lambda", "module": "core.common", "output_shape": null, "output_shape_type": "raw", "output_shape_module": null, "arguments": {}}, "inbound_nodes": [[["batch_normalization_39", 0, 0, {}]]]}, {"name": "tf_op_layer_concat_3", "class_name": "TensorFlowOpLayer", "config": {"name": "concat_3", "trainable": true, "dtype": null, "node_def": {"name": "concat_3", "op": "ConcatV2", "input": ["lambda_57/mul", "lambda_39/mul", "concat_3/axis"], "attr": {"N": {"i": "2"}, "Tidx": {"type": "DT_INT32"}, "T": {"type": "DT_FLOAT"}}}, "constants": {"2": -1}}, "inbound_nodes": [[["lambda_57", 0, 0, {}], ["lambda_39", 0, 0, {}]]]}, {"name": "conv2d_58", "class_name": "Conv2D", "config": {"name": "conv2d_58", "trainable": true, "dtype": "float32", "filters": 512, "kernel_size": [1, 1], "strides": [1, 1], "padding": "same", "data_format": "channels_last", "dilation_rate": [1, 1], "activation": "linear", "use_bias": false, "kernel_initializer": {"class_name": "RandomNormal", "config": {"mean": 0.0, "stddev": 0.01, "seed": null, "dtype": "float32"}}, "bias_initializer": {"class_name": "Constant", "config": {"value": 0.0, "dtype": "float32"}}, "kernel_regularizer": {"class_name": "L1L2", "config": {"l1": 0.0, "l2": 0.0005000000237487257}}, "bias_regularizer": null, "activity_regularizer": null, "kernel_constraint": null, "bias_constraint": null}, "inbound_nodes": [[["tf_op_layer_concat_3", 0, 0, {}]]]}, {"name": "batch_normalization_58", "class_name": "BatchNormalization", "config": {"name": "batch_normalization_58", "trainable": true, "dtype": "float32", "axis": [3], "momentum": 0.99, "epsilon": 0.001, "center": true, "scale": true, "beta_initializer": {"class_name": "Zeros", "config": {"dtype": "float32"}}, "gamma_initializer": {"class_name": "Ones", "config": {"dtype": "float32"}}, "moving_mean_initializer": {"class_name": "Zeros", "config": {"dtype": "float32"}}, "moving_variance_initializer": {"class_name": "Ones", "config": {"dtype": "float32"}}, "beta_regularizer": null, "gamma_regularizer": null, "beta_constraint": null, "gamma_constraint": null}, "inbound_nodes": [[["conv2d_58", 0, 0, {}]]]}, {"name": "lambda_58", "class_name": "Lambda", "config": {"name": "lambda_58", "trainable": true, "dtype": "float32", "function": ["4wEAAAAAAAAAAQAAAAYAAABTAAAAcyAAAAB8AHQAagF0AGoCagNkAXQAagR8AIMBFwCDAYMBFABT\nACkCTukBAAAAKQXaAnRm2gR0YW5o2gRtYXRo2gNsb2faA2V4cCkB2gF4qQByCAAAAPo5L2hvbWUv\nYjkyMDQwNS9naXQvdGVuc29yZmxvdy15b2xvdjQtdGZsaXRlL2NvcmUvY29tbW9uLnB52gg8bGFt\nYmRhPj4AAADzAAAAAA==\n", null, null], "function_type": "lambda", "module": "core.common", "output_shape": null, "output_shape_type": "raw", "output_shape_module": null, "arguments": {}}, "inbound_nodes": [[["batch_normalization_58", 0, 0, {}]]]}, {"name": "zero_padding2d_4", "class_name": "ZeroPadding2D", "config": {"name": "zero_padding2d_4", "trainable": true, "dtype": "float32", "padding": [[1, 0], [1, 0]], "data_format": "channels_last"}, "inbound_nodes": [[["lambda_58", 0, 0, {}]]]}, {"name": "conv2d_59", "class_name": "Conv2D", "config": {"name": "conv2d_59", "trainable": true, "dtype": "float32", "filters": 1024, "kernel_size": [3, 3], "strides": [2, 2], "padding": "valid", "data_format": "channels_last", "dilation_rate": [1, 1], "activation": "linear", "use_bias": false, "kernel_initializer": {"class_name": "RandomNormal", "config": {"mean": 0.0, "stddev": 0.01, "seed": null, "dtype": "float32"}}, "bias_initializer": {"class_name": "Constant", "config": {"value": 0.0, "dtype": "float32"}}, "kernel_regularizer": {"class_name": "L1L2", "config": {"l1": 0.0, "l2": 0.0005000000237487257}}, "bias_regularizer": null, "activity_regularizer": null, "kernel_constraint": null, "bias_constraint": null}, "inbound_nodes": [[["zero_padding2d_4", 0, 0, {}]]]}, {"name": "batch_normalization_59", "class_name": "BatchNormalization", "config": {"name": "batch_normalization_59", "trainable": true, "dtype": "float32", "axis": [3], "momentum": 0.99, "epsilon": 0.001, "center": true, "scale": true, "beta_initializer": {"class_name": "Zeros", "config": {"dtype": "float32"}}, "gamma_initializer": {"class_name": "Ones", "config": {"dtype": "float32"}}, "moving_mean_initializer": {"class_name": "Zeros", "config": {"dtype": "float32"}}, "moving_variance_initializer": {"class_name": "Ones", "config": {"dtype": "float32"}}, "beta_regularizer": null, "gamma_regularizer": null, "beta_constraint": null, "gamma_constraint": null}, "inbound_nodes": [[["conv2d_59", 0, 0, {}]]]}, {"name": "lambda_59", "class_name": "Lambda", "config": {"name": "lambda_59", "trainable": true, "dtype": "float32", "function": ["4wEAAAAAAAAAAQAAAAYAAABTAAAAcyAAAAB8AHQAagF0AGoCagNkAXQAagR8AIMBFwCDAYMBFABT\nACkCTukBAAAAKQXaAnRm2gR0YW5o2gRtYXRo2gNsb2faA2V4cCkB2gF4qQByCAAAAPo5L2hvbWUv\nYjkyMDQwNS9naXQvdGVuc29yZmxvdy15b2xvdjQtdGZsaXRlL2NvcmUvY29tbW9uLnB52gg8bGFt\nYmRhPj4AAADzAAAAAA==\n", null, null], "function_type": "lambda", "module": "core.common", "output_shape": null, "output_shape_type": "raw", "output_shape_module": null, "arguments": {}}, "inbound_nodes": [[["batch_normalization_59", 0, 0, {}]]]}, {"name": "conv2d_61", "class_name": "Conv2D", "config": {"name": "conv2d_61", "trainable": true, "dtype": "float32", "filters": 512, "kernel_size": [1, 1], "strides": [1, 1], "padding": "same", "data_format": "channels_last", "dilation_rate": [1, 1], "activation": "linear", "use_bias": false, "kernel_initializer": {"class_name": "RandomNormal", "config": {"mean": 0.0, "stddev": 0.01, "seed": null, "dtype": "float32"}}, "bias_initializer": {"class_name": "Constant", "config": {"value": 0.0, "dtype": "float32"}}, "kernel_regularizer": {"class_name": "L1L2", "config": {"l1": 0.0, "l2": 0.0005000000237487257}}, "bias_regularizer": null, "activity_regularizer": null, "kernel_constraint": null, "bias_constraint": null}, "inbound_nodes": [[["lambda_59", 0, 0, {}]]]}, {"name": "batch_normalization_61", "class_name": "BatchNormalization", "config": {"name": "batch_normalization_61", "trainable": true, "dtype": "float32", "axis": [3], "momentum": 0.99, "epsilon": 0.001, "center": true, "scale": true, "beta_initializer": {"class_name": "Zeros", "config": {"dtype": "float32"}}, "gamma_initializer": {"class_name": "Ones", "config": {"dtype": "float32"}}, "moving_mean_initializer": {"class_name": "Zeros", "config": {"dtype": "float32"}}, "moving_variance_initializer": {"class_name": "Ones", "config": {"dtype": "float32"}}, "beta_regularizer": null, "gamma_regularizer": null, "beta_constraint": null, "gamma_constraint": null}, "inbound_nodes": [[["conv2d_61", 0, 0, {}]]]}, {"name": "lambda_61", "class_name": "Lambda", "config": {"name": "lambda_61", "trainable": true, "dtype": "float32", "function": ["4wEAAAAAAAAAAQAAAAYAAABTAAAAcyAAAAB8AHQAagF0AGoCagNkAXQAagR8AIMBFwCDAYMBFABT\nACkCTukBAAAAKQXaAnRm2gR0YW5o2gRtYXRo2gNsb2faA2V4cCkB2gF4qQByCAAAAPo5L2hvbWUv\nYjkyMDQwNS9naXQvdGVuc29yZmxvdy15b2xvdjQtdGZsaXRlL2NvcmUvY29tbW9uLnB52gg8bGFt\nYmRhPj4AAADzAAAAAA==\n", null, null], "function_type": "lambda", "module": "core.common", "output_shape": null, "output_shape_type": "raw", "output_shape_module": null, "arguments": {}}, "inbound_nodes": [[["batch_normalization_61", 0, 0, {}]]]}, {"name": "conv2d_62", "class_name": "Conv2D", "config": {"name": "conv2d_62", "trainable": true, "dtype": "float32", "filters": 512, "kernel_size": [1, 1], "strides": [1, 1], "padding": "same", "data_format": "channels_last", "dilation_rate": [1, 1], "activation": "linear", "use_bias": false, "kernel_initializer": {"class_name": "RandomNormal", "config": {"mean": 0.0, "stddev": 0.01, "seed": null, "dtype": "float32"}}, "bias_initializer": {"class_name": "Constant", "config": {"value": 0.0, "dtype": "float32"}}, "kernel_regularizer": {"class_name": "L1L2", "config": {"l1": 0.0, "l2": 0.0005000000237487257}}, "bias_regularizer": null, "activity_regularizer": null, "kernel_constraint": null, "bias_constraint": null}, "inbound_nodes": [[["lambda_61", 0, 0, {}]]]}, {"name": "batch_normalization_62", "class_name": "BatchNormalization", "config": {"name": "batch_normalization_62", "trainable": true, "dtype": "float32", "axis": [3], "momentum": 0.99, "epsilon": 0.001, "center": true, "scale": true, "beta_initializer": {"class_name": "Zeros", "config": {"dtype": "float32"}}, "gamma_initializer": {"class_name": "Ones", "config": {"dtype": "float32"}}, "moving_mean_initializer": {"class_name": "Zeros", "config": {"dtype": "float32"}}, "moving_variance_initializer": {"class_name": "Ones", "config": {"dtype": "float32"}}, "beta_regularizer": null, "gamma_regularizer": null, "beta_constraint": null, "gamma_constraint": null}, "inbound_nodes": [[["conv2d_62", 0, 0, {}]]]}, {"name": "lambda_62", "class_name": "Lambda", "config": {"name": "lambda_62", "trainable": true, "dtype": "float32", "function": ["4wEAAAAAAAAAAQAAAAYAAABTAAAAcyAAAAB8AHQAagF0AGoCagNkAXQAagR8AIMBFwCDAYMBFABT\nACkCTukBAAAAKQXaAnRm2gR0YW5o2gRtYXRo2gNsb2faA2V4cCkB2gF4qQByCAAAAPo5L2hvbWUv\nYjkyMDQwNS9naXQvdGVuc29yZmxvdy15b2xvdjQtdGZsaXRlL2NvcmUvY29tbW9uLnB52gg8bGFt\nYmRhPj4AAADzAAAAAA==\n", null, null], "function_type": "lambda", "module": "core.common", "output_shape": null, "output_shape_type": "raw", "output_shape_module": null, "arguments": {}}, "inbound_nodes": [[["batch_normalization_62", 0, 0, {}]]]}, {"name": "conv2d_63", "class_name": "Conv2D", "config": {"name": "conv2d_63", "trainable": true, "dtype": "float32", "filters": 512, "kernel_size": [3, 3], "strides": [1, 1], "padding": "same", "data_format": "channels_last", "dilation_rate": [1, 1], "activation": "linear", "use_bias": false, "kernel_initializer": {"class_name": "RandomNormal", "config": {"mean": 0.0, "stddev": 0.01, "seed": null, "dtype": "float32"}}, "bias_initializer": {"class_name": "Constant", "config": {"value": 0.0, "dtype": "float32"}}, "kernel_regularizer": {"class_name": "L1L2", "config": {"l1": 0.0, "l2": 0.0005000000237487257}}, "bias_regularizer": null, "activity_regularizer": null, "kernel_constraint": null, "bias_constraint": null}, "inbound_nodes": [[["lambda_62", 0, 0, {}]]]}, {"name": "batch_normalization_63", "class_name": "BatchNormalization", "config": {"name": "batch_normalization_63", "trainable": true, "dtype": "float32", "axis": [3], "momentum": 0.99, "epsilon": 0.001, "center": true, "scale": true, "beta_initializer": {"class_name": "Zeros", "config": {"dtype": "float32"}}, "gamma_initializer": {"class_name": "Ones", "config": {"dtype": "float32"}}, "moving_mean_initializer": {"class_name": "Zeros", "config": {"dtype": "float32"}}, "moving_variance_initializer": {"class_name": "Ones", "config": {"dtype": "float32"}}, "beta_regularizer": null, "gamma_regularizer": null, "beta_constraint": null, "gamma_constraint": null}, "inbound_nodes": [[["conv2d_63", 0, 0, {}]]]}, {"name": "lambda_63", "class_name": "Lambda", "config": {"name": "lambda_63", "trainable": true, "dtype": "float32", "function": ["4wEAAAAAAAAAAQAAAAYAAABTAAAAcyAAAAB8AHQAagF0AGoCagNkAXQAagR8AIMBFwCDAYMBFABT\nACkCTukBAAAAKQXaAnRm2gR0YW5o2gRtYXRo2gNsb2faA2V4cCkB2gF4qQByCAAAAPo5L2hvbWUv\nYjkyMDQwNS9naXQvdGVuc29yZmxvdy15b2xvdjQtdGZsaXRlL2NvcmUvY29tbW9uLnB52gg8bGFt\nYmRhPj4AAADzAAAAAA==\n", null, null], "function_type": "lambda", "module": "core.common", "output_shape": null, "output_shape_type": "raw", "output_shape_module": null, "arguments": {}}, "inbound_nodes": [[["batch_normalization_63", 0, 0, {}]]]}, {"name": "tf_op_layer_add_19", "class_name": "TensorFlowOpLayer", "config": {"name": "add_19", "trainable": true, "dtype": null, "node_def": {"name": "add_19", "op": "AddV2", "input": ["lambda_61/mul", "lambda_63/mul"], "attr": {"T": {"type": "DT_FLOAT"}}}, "constants": {}}, "inbound_nodes": [[["lambda_61", 0, 0, {}], ["lambda_63", 0, 0, {}]]]}, {"name": "conv2d_64", "class_name": "Conv2D", "config": {"name": "conv2d_64", "trainable": true, "dtype": "float32", "filters": 512, "kernel_size": [1, 1], "strides": [1, 1], "padding": "same", "data_format": "channels_last", "dilation_rate": [1, 1], "activation": "linear", "use_bias": false, "kernel_initializer": {"class_name": "RandomNormal", "config": {"mean": 0.0, "stddev": 0.01, "seed": null, "dtype": "float32"}}, "bias_initializer": {"class_name": "Constant", "config": {"value": 0.0, "dtype": "float32"}}, "kernel_regularizer": {"class_name": "L1L2", "config": {"l1": 0.0, "l2": 0.0005000000237487257}}, "bias_regularizer": null, "activity_regularizer": null, "kernel_constraint": null, "bias_constraint": null}, "inbound_nodes": [[["tf_op_layer_add_19", 0, 0, {}]]]}, {"name": "batch_normalization_64", "class_name": "BatchNormalization", "config": {"name": "batch_normalization_64", "trainable": true, "dtype": "float32", "axis": [3], "momentum": 0.99, "epsilon": 0.001, "center": true, "scale": true, "beta_initializer": {"class_name": "Zeros", "config": {"dtype": "float32"}}, "gamma_initializer": {"class_name": "Ones", "config": {"dtype": "float32"}}, "moving_mean_initializer": {"class_name": "Zeros", "config": {"dtype": "float32"}}, "moving_variance_initializer": {"class_name": "Ones", "config": {"dtype": "float32"}}, "beta_regularizer": null, "gamma_regularizer": null, "beta_constraint": null, "gamma_constraint": null}, "inbound_nodes": [[["conv2d_64", 0, 0, {}]]]}, {"name": "lambda_64", "class_name": "Lambda", "config": {"name": "lambda_64", "trainable": true, "dtype": "float32", "function": ["4wEAAAAAAAAAAQAAAAYAAABTAAAAcyAAAAB8AHQAagF0AGoCagNkAXQAagR8AIMBFwCDAYMBFABT\nACkCTukBAAAAKQXaAnRm2gR0YW5o2gRtYXRo2gNsb2faA2V4cCkB2gF4qQByCAAAAPo5L2hvbWUv\nYjkyMDQwNS9naXQvdGVuc29yZmxvdy15b2xvdjQtdGZsaXRlL2NvcmUvY29tbW9uLnB52gg8bGFt\nYmRhPj4AAADzAAAAAA==\n", null, null], "function_type": "lambda", "module": "core.common", "output_shape": null, "output_shape_type": "raw", "output_shape_module": null, "arguments": {}}, "inbound_nodes": [[["batch_normalization_64", 0, 0, {}]]]}, {"name": "conv2d_65", "class_name": "Conv2D", "config": {"name": "conv2d_65", "trainable": true, "dtype": "float32", "filters": 512, "kernel_size": [3, 3], "strides": [1, 1], "padding": "same", "data_format": "channels_last", "dilation_rate": [1, 1], "activation": "linear", "use_bias": false, "kernel_initializer": {"class_name": "RandomNormal", "config": {"mean": 0.0, "stddev": 0.01, "seed": null, "dtype": "float32"}}, "bias_initializer": {"class_name": "Constant", "config": {"value": 0.0, "dtype": "float32"}}, "kernel_regularizer": {"class_name": "L1L2", "config": {"l1": 0.0, "l2": 0.0005000000237487257}}, "bias_regularizer": null, "activity_regularizer": null, "kernel_constraint": null, "bias_constraint": null}, "inbound_nodes": [[["lambda_64", 0, 0, {}]]]}, {"name": "batch_normalization_65", "class_name": "BatchNormalization", "config": {"name": "batch_normalization_65", "trainable": true, "dtype": "float32", "axis": [3], "momentum": 0.99, "epsilon": 0.001, "center": true, "scale": true, "beta_initializer": {"class_name": "Zeros", "config": {"dtype": "float32"}}, "gamma_initializer": {"class_name": "Ones", "config": {"dtype": "float32"}}, "moving_mean_initializer": {"class_name": "Zeros", "config": {"dtype": "float32"}}, "moving_variance_initializer": {"class_name": "Ones", "config": {"dtype": "float32"}}, "beta_regularizer": null, "gamma_regularizer": null, "beta_constraint": null, "gamma_constraint": null}, "inbound_nodes": [[["conv2d_65", 0, 0, {}]]]}, {"name": "lambda_65", "class_name": "Lambda", "config": {"name": "lambda_65", "trainable": true, "dtype": "float32", "function": ["4wEAAAAAAAAAAQAAAAYAAABTAAAAcyAAAAB8AHQAagF0AGoCagNkAXQAagR8AIMBFwCDAYMBFABT\nACkCTukBAAAAKQXaAnRm2gR0YW5o2gRtYXRo2gNsb2faA2V4cCkB2gF4qQByCAAAAPo5L2hvbWUv\nYjkyMDQwNS9naXQvdGVuc29yZmxvdy15b2xvdjQtdGZsaXRlL2NvcmUvY29tbW9uLnB52gg8bGFt\nYmRhPj4AAADzAAAAAA==\n", null, null], "function_type": "lambda", "module": "core.common", "output_shape": null, "output_shape_type": "raw", "output_shape_module": null, "arguments": {}}, "inbound_nodes": [[["batch_normalization_65", 0, 0, {}]]]}, {"name": "tf_op_layer_add_20", "class_name": "TensorFlowOpLayer", "config": {"name": "add_20", "trainable": true, "dtype": null, "node_def": {"name": "add_20", "op": "AddV2", "input": ["add_19", "lambda_65/mul"], "attr": {"T": {"type": "DT_FLOAT"}}}, "constants": {}}, "inbound_nodes": [[["tf_op_layer_add_19", 0, 0, {}], ["lambda_65", 0, 0, {}]]]}, {"name": "conv2d_66", "class_name": "Conv2D", "config": {"name": "conv2d_66", "trainable": true, "dtype": "float32", "filters": 512, "kernel_size": [1, 1], "strides": [1, 1], "padding": "same", "data_format": "channels_last", "dilation_rate": [1, 1], "activation": "linear", "use_bias": false, "kernel_initializer": {"class_name": "RandomNormal", "config": {"mean": 0.0, "stddev": 0.01, "seed": null, "dtype": "float32"}}, "bias_initializer": {"class_name": "Constant", "config": {"value": 0.0, "dtype": "float32"}}, "kernel_regularizer": {"class_name": "L1L2", "config": {"l1": 0.0, "l2": 0.0005000000237487257}}, "bias_regularizer": null, "activity_regularizer": null, "kernel_constraint": null, "bias_constraint": null}, "inbound_nodes": [[["tf_op_layer_add_20", 0, 0, {}]]]}, {"name": "batch_normalization_66", "class_name": "BatchNormalization", "config": {"name": "batch_normalization_66", "trainable": true, "dtype": "float32", "axis": [3], "momentum": 0.99, "epsilon": 0.001, "center": true, "scale": true, "beta_initializer": {"class_name": "Zeros", "config": {"dtype": "float32"}}, "gamma_initializer": {"class_name": "Ones", "config": {"dtype": "float32"}}, "moving_mean_initializer": {"class_name": "Zeros", "config": {"dtype": "float32"}}, "moving_variance_initializer": {"class_name": "Ones", "config": {"dtype": "float32"}}, "beta_regularizer": null, "gamma_regularizer": null, "beta_constraint": null, "gamma_constraint": null}, "inbound_nodes": [[["conv2d_66", 0, 0, {}]]]}, {"name": "lambda_66", "class_name": "Lambda", "config": {"name": "lambda_66", "trainable": true, "dtype": "float32", "function": ["4wEAAAAAAAAAAQAAAAYAAABTAAAAcyAAAAB8AHQAagF0AGoCagNkAXQAagR8AIMBFwCDAYMBFABT\nACkCTukBAAAAKQXaAnRm2gR0YW5o2gRtYXRo2gNsb2faA2V4cCkB2gF4qQByCAAAAPo5L2hvbWUv\nYjkyMDQwNS9naXQvdGVuc29yZmxvdy15b2xvdjQtdGZsaXRlL2NvcmUvY29tbW9uLnB52gg8bGFt\nYmRhPj4AAADzAAAAAA==\n", null, null], "function_type": "lambda", "module": "core.common", "output_shape": null, "output_shape_type": "raw", "output_shape_module": null, "arguments": {}}, "inbound_nodes": [[["batch_normalization_66", 0, 0, {}]]]}, {"name": "conv2d_67", "class_name": "Conv2D", "config": {"name": "conv2d_67", "trainable": true, "dtype": "float32", "filters": 512, "kernel_size": [3, 3], "strides": [1, 1], "padding": "same", "data_format": "channels_last", "dilation_rate": [1, 1], "activation": "linear", "use_bias": false, "kernel_initializer": {"class_name": "RandomNormal", "config": {"mean": 0.0, "stddev": 0.01, "seed": null, "dtype": "float32"}}, "bias_initializer": {"class_name": "Constant", "config": {"value": 0.0, "dtype": "float32"}}, "kernel_regularizer": {"class_name": "L1L2", "config": {"l1": 0.0, "l2": 0.0005000000237487257}}, "bias_regularizer": null, "activity_regularizer": null, "kernel_constraint": null, "bias_constraint": null}, "inbound_nodes": [[["lambda_66", 0, 0, {}]]]}, {"name": "batch_normalization_67", "class_name": "BatchNormalization", "config": {"name": "batch_normalization_67", "trainable": true, "dtype": "float32", "axis": [3], "momentum": 0.99, "epsilon": 0.001, "center": true, "scale": true, "beta_initializer": {"class_name": "Zeros", "config": {"dtype": "float32"}}, "gamma_initializer": {"class_name": "On…
zer": null, "activity_regularizer": null, "kernel_constraint": null, "bias_constraint": null}, "inbound_nodes": [[["tf_op_layer_LeakyRelu_16", 0, 0, {}]]]}, {"name": "batch_normalization_89", "class_name": "BatchNormalization", "config": {"name": "batch_normalization_89", "trainable": true, "dtype": "float32", "axis": [3], "momentum": 0.99, "epsilon": 0.001, "center": true, "scale": true, "beta_initializer": {"class_name": "Zeros", "config": {"dtype": "float32"}}, "gamma_initializer": {"class_name": "Ones", "config": {"dtype": "float32"}}, "moving_mean_initializer": {"class_name": "Zeros", "config": {"dtype": "float32"}}, "moving_variance_initializer": {"class_name": "Ones", "config": {"dtype": "float32"}}, "beta_regularizer": null, "gamma_regularizer": null, "beta_constraint": null, "gamma_constraint": null}, "inbound_nodes": [[["conv2d_89", 0, 0, {}]]]}, {"name": "tf_op_layer_LeakyRelu_17", "class_name": "TensorFlowOpLayer", "config": {"name": "LeakyRelu_17", "trainable": true, "dtype": null, "node_def": {"name": "LeakyRelu_17", "op": "LeakyRelu", "input": ["batch_normalization_89/FusedBatchNormV3"], "attr": {"T": {"type": "DT_FLOAT"}, "alpha": {"f": 0.10000000149011612}}}, "constants": {}}, "inbound_nodes": [[["batch_normalization_89", 0, 0, {}]]]}, {"name": "conv2d_90", "class_name": "Conv2D", "config": {"name": "conv2d_90", "trainable": true, "dtype": "float32", "filters": 256, "kernel_size": [3, 3], "strides": [1, 1], "padding": "same", "data_format": "channels_last", "dilation_rate": [1, 1], "activation": "linear", "use_bias": false, "kernel_initializer": {"class_name": "RandomNormal", "config": {"mean": 0.0, "stddev": 0.01, "seed": null, "dtype": "float32"}}, "bias_initializer": {"class_name": "Constant", "config": {"value": 0.0, "dtype": "float32"}}, "kernel_regularizer": {"class_name": "L1L2", "config": {"l1": 0.0, "l2": 0.0005000000237487257}}, "bias_regularizer": null, "activity_regularizer": null, "kernel_constraint": null, "bias_constraint": null}, "inbound_nodes": [[["tf_op_layer_LeakyRelu_17", 0, 0, {}]]]}, {"name": "batch_normalization_90", "class_name": "BatchNormalization", "config": {"name": "batch_normalization_90", "trainable": true, "dtype": "float32", "axis": [3], "momentum": 0.99, "epsilon": 0.001, "center": true, "scale": true, "beta_initializer": {"class_name": "Zeros", "config": {"dtype": "float32"}}, "gamma_initializer": {"class_name": "Ones", "config": {"dtype": "float32"}}, "moving_mean_initializer": {"class_name": "Zeros", "config": {"dtype": "float32"}}, "moving_variance_initializer": {"class_name": "Ones", "config": {"dtype": "float32"}}, "beta_regularizer": null, "gamma_regularizer": null, "beta_constraint": null, "gamma_constraint": null}, "inbound_nodes": [[["conv2d_90", 0, 0, {}]]]}, {"name": "tf_op_layer_LeakyRelu_18", "class_name": "TensorFlowOpLayer", "config": {"name": "LeakyRelu_18", "trainable": true, "dtype": null, "node_def": {"name": "LeakyRelu_18", "op": "LeakyRelu", "input": ["batch_normalization_90/FusedBatchNormV3"], "attr": {"T": {"type": "DT_FLOAT"}, "alpha": {"f": 0.10000000149011612}}}, "constants": {}}, "inbound_nodes": [[["batch_normalization_90", 0, 0, {}]]]}, {"name": "conv2d_91", "class_name": "Conv2D", "config": {"name": "conv2d_91", "trainable": true, "dtype": "float32", "filters": 128, "kernel_size": [1, 1], "strides": [1, 1], "padding": "same", "data_format": "channels_last", "dilation_rate": [1, 1], "activation": "linear", "use_bias": false, "kernel_initializer": {"class_name": "RandomNormal", "config": {"mean": 0.0, "stddev": 0.01, "seed": null, "dtype": "float32"}}, "bias_initializer": {"class_name": "Constant", "config": {"value": 0.0, "dtype": "float32"}}, "kernel_regularizer": {"class_name": "L1L2", "config": {"l1": 0.0, "l2": 0.0005000000237487257}}, "bias_regularizer": null, "activity_regularizer": null, "kernel_constraint": null, "bias_constraint": null}, "inbound_nodes": [[["tf_op_layer_LeakyRelu_18", 0, 0, {}]]]}, {"name": "batch_normalization_91", "class_name": "BatchNormalization", "config": {"name": "batch_normalization_91", "trainable": true, "dtype": "float32", "axis": [3], "momentum": 0.99, "epsilon": 0.001, "center": true, "scale": true, "beta_initializer": {"class_name": "Zeros", "config": {"dtype": "float32"}}, "gamma_initializer": {"class_name": "Ones", "config": {"dtype": "float32"}}, "moving_mean_initializer": {"class_name": "Zeros", "config": {"dtype": "float32"}}, "moving_variance_initializer": {"class_name": "Ones", "config": {"dtype": "float32"}}, "beta_regularizer": null, "gamma_regularizer": null, "beta_constraint": null, "gamma_constraint": null}, "inbound_nodes": [[["conv2d_91", 0, 0, {}]]]}, {"name": "tf_op_layer_LeakyRelu_19", "class_name": "TensorFlowOpLayer", "config": {"name": "LeakyRelu_19", "trainable": true, "dtype": null, "node_def": {"name": "LeakyRelu_19", "op": "LeakyRelu", "input": ["batch_normalization_91/FusedBatchNormV3"], "attr": {"alpha": {"f": 0.10000000149011612}, "T": {"type": "DT_FLOAT"}}}, "constants": {}}, "inbound_nodes": [[["batch_normalization_91", 0, 0, {}]]]}, {"name": "zero_padding2d_5", "class_name": "ZeroPadding2D", "config": {"name": "zero_padding2d_5", "trainable": true, "dtype": "float32", "padding": [[1, 0], [1, 0]], "data_format": "channels_last"}, "inbound_nodes": [[["tf_op_layer_LeakyRelu_19", 0, 0, {}]]]}, {"name": "conv2d_94", "class_name": "Conv2D", "config": {"name": "conv2d_94", "trainable": true, "dtype": "float32", "filters": 256, "kernel_size": [3, 3], "strides": [2, 2], "padding": "valid", "data_format": "channels_last", "dilation_rate": [1, 1], "activation": "linear", "use_bias": false, "kernel_initializer": {"class_name": "RandomNormal", "config": {"mean": 0.0, "stddev": 0.01, "seed": null, "dtype": "float32"}}, "bias_initializer": {"class_name": "Constant", "config": {"value": 0.0, "dtype": "float32"}}, "kernel_regularizer": {"class_name": "L1L2", "config": {"l1": 0.0, "l2": 0.0005000000237487257}}, "bias_regularizer": null, "activity_regularizer": null, "kernel_constraint": null, "bias_constraint": null}, "inbound_nodes": [[["zero_padding2d_5", 0, 0, {}]]]}, {"name": "batch_normalization_93", "class_name": "BatchNormalization", "config": {"name": "batch_normalization_93", "trainable": true, "dtype": "float32", "axis": [3], "momentum": 0.99, "epsilon": 0.001, "center": true, "scale": true, "beta_initializer": {"class_name": "Zeros", "config": {"dtype": "float32"}}, "gamma_initializer": {"class_name": "Ones", "config": {"dtype": "float32"}}, "moving_mean_initializer": {"class_name": "Zeros", "config": {"dtype": "float32"}}, "moving_variance_initializer": {"class_name": "Ones", "config": {"dtype": "float32"}}, "beta_regularizer": null, "gamma_regularizer": null, "beta_constraint": null, "gamma_constraint": null}, "inbound_nodes": [[["conv2d_94", 0, 0, {}]]]}, {"name": "tf_op_layer_LeakyRelu_21", "class_name": "TensorFlowOpLayer", "config": {"name": "LeakyRelu_21", "trainable": true, "dtype": null, "node_def": {"name": "LeakyRelu_21", "op": "LeakyRelu", "input": ["batch_normalization_93/FusedBatchNormV3"], "attr": {"T": {"type": "DT_FLOAT"}, "alpha": {"f": 0.10000000149011612}}}, "constants": {}}, "inbound_nodes": [[["batch_normalization_93", 0, 0, {}]]]}, {"name": "tf_op_layer_concat_8", "class_name": "TensorFlowOpLayer", "config": {"name": "concat_8", "trainable": true, "dtype": null, "node_def": {"name": "concat_8", "op": "ConcatV2", "input": ["LeakyRelu_21", "LeakyRelu_12", "concat_8/axis"], "attr": {"N": {"i": "2"}, "Tidx": {"type": "DT_INT32"}, "T": {"type": "DT_FLOAT"}}}, "constants": {"2": -1}}, "inbound_nodes": [[["tf_op_layer_LeakyRelu_21", 0, 0, {}], ["tf_op_layer_LeakyRelu_12", 0, 0, {}]]]}, {"name": "conv2d_95", "class_name": "Conv2D", "config": {"name": "conv2d_95", "trainable": true, "dtype": "float32", "filters": 256, "kernel_size": [1, 1], "strides": [1, 1], "padding": "same", "data_format": "channels_last", "dilation_rate": [1, 1], "activation": "linear", "use_bias": false, "kernel_initializer": {"class_name": "RandomNormal", "config": {"mean": 0.0, "stddev": 0.01, "seed": null, "dtype": "float32"}}, "bias_initializer": {"class_name": "Constant", "config": {"value": 0.0, "dtype": "float32"}}, "kernel_regularizer": {"class_name": "L1L2", "config": {"l1": 0.0, "l2": 0.0005000000237487257}}, "bias_regularizer": null, "activity_regularizer": null, "kernel_constraint": null, "bias_constraint": null}, "inbound_nodes": [[["tf_op_layer_concat_8", 0, 0, {}]]]}, {"name": "batch_normalization_94", "class_name": "BatchNormalization", "config": {"name": "batch_normalization_94", "trainable": true, "dtype": "float32", "axis": [3], "momentum": 0.99, "epsilon": 0.001, "center": true, "scale": true, "beta_initializer": {"class_name": "Zeros", "config": {"dtype": "float32"}}, "gamma_initializer": {"class_name": "Ones", "config": {"dtype": "float32"}}, "moving_mean_initializer": {"class_name": "Zeros", "config": {"dtype": "float32"}}, "moving_variance_initializer": {"class_name": "Ones", "config": {"dtype": "float32"}}, "beta_regularizer": null, "gamma_regularizer": null, "beta_constraint": null, "gamma_constraint": null}, "inbound_nodes": [[["conv2d_95", 0, 0, {}]]]}, {"name": "tf_op_layer_LeakyRelu_22", "class_name": "TensorFlowOpLayer", "config": {"name": "LeakyRelu_22", "trainable": true, "dtype": null, "node_def": {"name": "LeakyRelu_22", "op": "LeakyRelu", "input": ["batch_normalization_94/FusedBatchNormV3"], "attr": {"T": {"type": "DT_FLOAT"}, "alpha": {"f": 0.10000000149011612}}}, "constants": {}}, "inbound_nodes": [[["batch_normalization_94", 0, 0, {}]]]}, {"name": "conv2d_96", "class_name": "Conv2D", "config": {"name": "conv2d_96", "trainable": true, "dtype": "float32", "filters": 512, "kernel_size": [3, 3], "strides": [1, 1], "padding": "same", "data_format": "channels_last", "dilation_rate": [1, 1], "activation": "linear", "use_bias": false, "kernel_initializer": {"class_name": "RandomNormal", "config": {"mean": 0.0, "stddev": 0.01, "seed": null, "dtype": "float32"}}, "bias_initializer": {"class_name": "Constant", "config": {"value": 0.0, "dtype": "float32"}}, "kernel_regularizer": {"class_name": "L1L2", "config": {"l1": 0.0, "l2": 0.0005000000237487257}}, "bias_regularizer": null, "activity_regularizer": null, "kernel_constraint": null, "bias_constraint": null}, "inbound_nodes": [[["tf_op_layer_LeakyRelu_22", 0, 0, {}]]]}, {"name": "batch_normalization_95", "class_name": "BatchNormalization", "config": {"name": "batch_normalization_95", "trainable": true, "dtype": "float32", "axis": [3], "momentum": 0.99, "epsilon": 0.001, "center": true, "scale": true, "beta_initializer": {"class_name": "Zeros", "config": {"dtype": "float32"}}, "gamma_initializer": {"class_name": "Ones", "config": {"dtype": "float32"}}, "moving_mean_initializer": {"class_name": "Zeros", "config": {"dtype": "float32"}}, "moving_variance_initializer": {"class_name": "Ones", "config": {"dtype": "float32"}}, "beta_regularizer": null, "gamma_regularizer": null, "beta_constraint": null, "gamma_constraint": null}, "inbound_nodes": [[["conv2d_96", 0, 0, {}]]]}, {"name": "tf_op_layer_LeakyRelu_23", "class_name": "TensorFlowOpLayer", "config": {"name": "LeakyRelu_23", "trainable": true, "dtype": null, "node_def": {"name": "LeakyRelu_23", "op": "LeakyRelu", "input": ["batch_normalization_95/FusedBatchNormV3"], "attr": {"T": {"type": "DT_FLOAT"}, "alpha": {"f": 0.10000000149011612}}}, "constants": {}}, "inbound_nodes": [[["batch_normalization_95", 0, 0, {}]]]}, {"name": "conv2d_97", "class_name": "Conv2D", "config": {"name": "conv2d_97", "trainable": true, "dtype": "float32", "filters": 256, "kernel_size": [1, 1], "strides": [1, 1], "padding": "same", "data_format": "channels_last", "dilation_rate": [1, 1], "activation": "linear", "use_bias": false, "kernel_initializer": {"class_name": "RandomNormal", "config": {"mean": 0.0, "stddev": 0.01, "seed": null, "dtype": "float32"}}, "bias_initializer": {"class_name": "Constant", "config": {"value": 0.0, "dtype": "float32"}}, "kernel_regularizer": {"class_name": "L1L2", "config": {"l1": 0.0, "l2": 0.0005000000237487257}}, "bias_regularizer": null, "activity_regularizer": null, "kernel_constraint": null, "bias_constraint": null}, "inbound_nodes": [[["tf_op_layer_LeakyRelu_23", 0, 0, {}]]]}, {"name": "batch_normalization_96", "class_name": "BatchNormalization", "config": {"name": "batch_normalization_96", "trainable": true, "dtype": "float32", "axis": [3], "momentum": 0.99, "epsilon": 0.001, "center": true, "scale": true, "beta_initializer": {"class_name": "Zeros", "config": {"dtype": "float32"}}, "gamma_initializer": {"class_name": "Ones", "config": {"dtype": "float32"}}, "moving_mean_initializer": {"class_name": "Zeros", "config": {"dtype": "float32"}}, "moving_variance_initializer": {"class_name": "Ones", "config": {"dtype": "float32"}}, "beta_regularizer": null, "gamma_regularizer": null, "beta_constraint": null, "gamma_constraint": null}, "inbound_nodes": [[["conv2d_97", 0, 0, {}]]]}, {"name": "tf_op_layer_LeakyRelu_24", "class_name": "TensorFlowOpLayer", "config": {"name": "LeakyRelu_24", "trainable": true, "dtype": null, "node_def": {"name": "LeakyRelu_24", "op": "LeakyRelu", "input": ["batch_normalization_96/FusedBatchNormV3"], "attr": {"T": {"type": "DT_FLOAT"}, "alpha": {"f": 0.10000000149011612}}}, "constants": {}}, "inbound_nodes": [[["batch_normalization_96", 0, 0, {}]]]}, {"name": "conv2d_98", "class_name": "Conv2D", "config": {"name": "conv2d_98", "trainable": true, "dtype": "float32", "filters": 512, "kernel_size": [3, 3], "strides": [1, 1], "padding": "same", "data_format": "channels_last", "dilation_rate": [1, 1], "activation": "linear", "use_bias": false, "kernel_initializer": {"class_name": "RandomNormal", "config": {"mean": 0.0, "stddev": 0.01, "seed": null, "dtype": "float32"}}, "bias_initializer": {"class_name": "Constant", "config": {"value": 0.0, "dtype": "float32"}}, "kernel_regularizer": {"class_name": "L1L2", "config": {"l1": 0.0, "l2": 0.0005000000237487257}}, "bias_regularizer": null, "activity_regularizer": null, "kernel_constraint": null, "bias_constraint": null}, "inbound_nodes": [[["tf_op_layer_LeakyRelu_24", 0, 0, {}]]]}, {"name": "batch_normalization_97", "class_name": "BatchNormalization", "config": {"name": "batch_normalization_97", "trainable": true, "dtype": "float32", "axis": [3], "momentum": 0.99, "epsilon": 0.001, "center": true, "scale": true, "beta_initializer": {"class_name": "Zeros", "config": {"dtype": "float32"}}, "gamma_initializer": {"class_name": "Ones", "config": {"dtype": "float32"}}, "moving_mean_initializer": {"class_name": "Zeros", "config": {"dtype": "float32"}}, "moving_variance_initializer": {"class_name": "Ones", "config": {"dtype": "float32"}}, "beta_regularizer": null, "gamma_regularizer": null, "beta_constraint": null, "gamma_constraint": null}, "inbound_nodes": [[["conv2d_98", 0, 0, {}]]]}, {"name": "tf_op_layer_LeakyRelu_25", "class_name": "TensorFlowOpLayer", "config": {"name": "LeakyRelu_25", "trainable": true, "dtype": null, "node_def": {"name": "LeakyRelu_25", "op": "LeakyRelu", "input": ["batch_normalization_97/FusedBatchNormV3"], "attr": {"T": {"type": "DT_FLOAT"}, "alpha": {"f": 0.10000000149011612}}}, "constants": {}}, "inbound_nodes": [[["batch_normalization_97", 0, 0, {}]]]}, {"name": "conv2d_99", "class_name": "Conv2D", "config": {"name": "conv2d_99", "trainable": true, "dtype": "float32", "filters": 256, "kernel_size": [1, 1], "strides": [1, 1], "padding": "same", "data_format": "channels_last", "dilation_rate": [1, 1], "activation": "linear", "use_bias": false, "kernel_initializer": {"class_name": "RandomNormal", "config": {"mean": 0.0, "stddev": 0.01, "seed": null, "dtype": "float32"}}, "bias_initializer": {"class_name": "Constant", "config": {"value": 0.0, "dtype": "float32"}}, "kernel_regularizer": {"class_name": "L1L2", "config": {"l1": 0.0, "l2": 0.0005000000237487257}}, "bias_regularizer": null, "activity_regularizer": null, "kernel_constraint": null, "bias_constraint": null}, "inbound_nodes": [[["tf_op_layer_LeakyRelu_25", 0, 0, {}]]]}, {"name": "batch_normalization_98", "class_name": "BatchNormalization", "config": {"name": "batch_normalization_98", "trainable": true, "dtype": "float32", "axis": [3], "momentum": 0.99, "epsilon": 0.001, "center": true, "scale": true, "beta_initializer": {"class_name": "Zeros", "config": {"dtype": "float32"}}, "gamma_initializer": {"class_name": "Ones", "config": {"dtype": "float32"}}, "moving_mean_initializer": {"class_name": "Zeros", "config": {"dtype": "float32"}}, "moving_variance_initializer": {"class_name": "Ones", "config": {"dtype": "float32"}}, "beta_regularizer": null, "gamma_regularizer": null, "beta_constraint": null, "gamma_constraint": null}, "inbound_nodes": [[["conv2d_99", 0, 0, {}]]]}, {"name": "tf_op_layer_LeakyRelu_26", "class_name": "TensorFlowOpLayer", "config": {"name": "LeakyRelu_26", "trainable": true, "dtype": null, "node_def": {"name": "LeakyRelu_26", "op": "LeakyRelu", "input": ["batch_normalization_98/FusedBatchNormV3"], "attr": {"alpha": {"f": 0.10000000149011612}, "T": {"type": "DT_FLOAT"}}}, "constants": {}}, "inbound_nodes": [[["batch_normalization_98", 0, 0, {}]]]}, {"name": "zero_padding2d_6", "class_name": "ZeroPadding2D", "config": {"name": "zero_padding2d_6", "trainable": true, "dtype": "float32", "padding": [[1, 0], [1, 0]], "data_format": "channels_last"}, "inbound_nodes": [[["tf_op_layer_LeakyRelu_26", 0, 0, {}]]]}, {"name": "conv2d_102", "class_name": "Conv2D", "config": {"name": "conv2d_102", "trainable": true, "dtype": "float32", "filters": 512, "kernel_size": [3, 3], "strides": [2, 2], "padding": "valid", "data_format": "channels_last", "dilation_rate": [1, 1], "activation": "linear", "use_bias": false, "kernel_initializer": {"class_name": "RandomNormal", "config": {"mean": 0.0, "stddev": 0.01, "seed": null, "dtype": "float32"}}, "bias_initializer": {"class_name": "Constant", "config": {"value": 0.0, "dtype": "float32"}}, "kernel_regularizer": {"class_name": "L1L2", "config": {"l1": 0.0, "l2": 0.0005000000237487257}}, "bias_regularizer": null, "activity_regularizer": null, "kernel_constraint": null, "bias_constraint": null}, "inbound_nodes": [[["zero_padding2d_6", 0, 0, {}]]]}, {"name": "batch_normalization_100", "class_name": "BatchNormalization", "config": {"name": "batch_normalization_100", "trainable": true, "dtype": "float32", "axis": [3], "momentum": 0.99, "epsilon": 0.001, "center": true, "scale": true, "beta_initializer": {"class_name": "Zeros", "config": {"dtype": "float32"}}, "gamma_initializer": {"class_name": "Ones", "config": {"dtype": "float32"}}, "moving_mean_initializer": {"class_name": "Zeros", "config": {"dtype": "float32"}}, "moving_variance_initializer": {"class_name": "Ones", "config": {"dtype": "float32"}}, "beta_regularizer": null, "gamma_regularizer": null, "beta_constraint": null, "gamma_constraint": null}, "inbound_nodes": [[["conv2d_102", 0, 0, {}]]]}, {"name": "tf_op_layer_LeakyRelu_28", "class_name": "TensorFlowOpLayer", "config": {"name": "LeakyRelu_28", "trainable": true, "dtype": null, "node_def": {"name": "LeakyRelu_28", "op": "LeakyRelu", "input": ["batch_normalization_100/FusedBatchNormV3"], "attr": {"alpha": {"f": 0.10000000149011612}, "T": {"type": "DT_FLOAT"}}}, "constants": {}}, "inbound_nodes": [[["batch_normalization_100", 0, 0, {}]]]}, {"name": "tf_op_layer_concat_9", "class_name": "TensorFlowOpLayer", "config": {"name": "concat_9", "trainable": true, "dtype": null, "node_def": {"name": "concat_9", "op": "ConcatV2", "input": ["LeakyRelu_28", "LeakyRelu_5", "concat_9/axis"], "attr": {"N": {"i": "2"}, "Tidx": {"type": "DT_INT32"}, "T": {"type": "DT_FLOAT"}}}, "constants": {"2": -1}}, "inbound_nodes": [[["tf_op_layer_LeakyRelu_28", 0, 0, {}], ["tf_op_layer_LeakyRelu_5", 0, 0, {}]]]}, {"name": "conv2d_103", "class_name": "Conv2D", "config": {"name": "conv2d_103", "trainable": true, "dtype": "float32", "filters": 512, "kernel_size": [1, 1], "strides": [1, 1], "padding": "same", "data_format": "channels_last", "dilation_rate": [1, 1], "activation": "linear", "use_bias": false, "kernel_initializer": {"class_name": "RandomNormal", "config": {"mean": 0.0, "stddev": 0.01, "seed": null, "dtype": "float32"}}, "bias_initializer": {"class_name": "Constant", "config": {"value": 0.0, "dtype": "float32"}}, "kernel_regularizer": {"class_name": "L1L2", "config": {"l1": 0.0, "l2": 0.0005000000237487257}}, "bias_regularizer": null, "activity_regularizer": null, "kernel_constraint": null, "bias_constraint": null}, "inbound_nodes": [[["tf_op_layer_concat_9", 0, 0, {}]]]}, {"name": "batch_normalization_101", "class_name": "BatchNormalization", "config": {"name": "batch_normalization_101", "trainable": true, "dtype": "float32", "axis": [3], "momentum": 0.99, "epsilon": 0.001, "center": true, "scale": true, "beta_initializer": {"class_name": "Zeros", "config": {"dtype": "float32"}}, "gamma_initializer": {"class_name": "Ones", "config": {"dtype": "float32"}}, "moving_mean_initializer": {"class_name": "Zeros", "config": {"dtype": "float32"}}, "moving_variance_initializer": {"class_name": "Ones", "config": {"dtype": "float32"}}, "beta_regularizer": null, "gamma_regularizer": null, "beta_constraint": null, "gamma_constraint": null}, "inbound_nodes": [[["conv2d_103", 0, 0, {}]]]}, {"name": "tf_op_layer_LeakyRelu_29", "class_name": "TensorFlowOpLayer", "config": {"name": "LeakyRelu_29", "trainable": true, "dtype": null, "node_def": {"name": "LeakyRelu_29", "op": "LeakyRelu", "input": ["batch_normalization_101/FusedBatchNormV3"], "attr": {"alpha": {"f": 0.10000000149011612}, "T": {"type": "DT_FLOAT"}}}, "constants": {}}, "inbound_nodes": [[["batch_normalization_101", 0, 0, {}]]]}, {"name": "conv2d_104", "class_name": "Conv2D", "config": {"name": "conv2d_104", "trainable": true, "dtype": "float32", "filters": 1024, "kernel_size": [3, 3], "strides": [1, 1], "padding": "same", "data_format": "channels_last", "dilation_rate": [1, 1], "activation": "linear", "use_bias": false, "kernel_initializer": {"class_name": "RandomNormal", "config": {"mean": 0.0, "stddev": 0.01, "seed": null, "dtype": "float32"}}, "bias_initializer": {"class_name": "Constant", "config": {"value": 0.0, "dtype": "float32"}}, "kernel_regularizer": {"class_name": "L1L2", "config": {"l1": 0.0, "l2": 0.0005000000237487257}}, "bias_regularizer": null, "activity_regularizer": null, "kernel_constraint": null, "bias_constraint": null}, "inbound_nodes": [[["tf_op_layer_LeakyRelu_29", 0, 0, {}]]]}, {"name": "batch_normalization_102", "class_name": "BatchNormalization", "config": {"name": "batch_normalization_102", "trainable": true, "dtype": "float32", "axis": [3], "momentum": 0.99, "epsilon": 0.001, "center": true, "scale": true, "beta_initializer": {"class_name": "Zeros", "config": {"dtype": "float32"}}, "gamma_initializer": {"class_name": "Ones", "config": {"dtype": "float32"}}, "moving_mean_initializer": {"class_name": "Zeros", "config": {"dtype": "float32"}}, "moving_variance_initializer": {"class_name": "Ones", "config": {"dtype": "float32"}}, "beta_regularizer": null, "gamma_regularizer": null, "beta_constraint": null, "gamma_constraint": null}, "inbound_nodes": [[["conv2d_104", 0, 0, {}]]]}, {"name": "tf_op_layer_LeakyRelu_30", "class_name": "TensorFlowOpLayer", "config": {"name": "LeakyRelu_30", "trainable": true, "dtype": null, "node_def": {"name": "LeakyRelu_30", "op": "LeakyRelu", "input": ["batch_normalization_102/FusedBatchNormV3"], "attr": {"T": {"type": "DT_FLOAT"}, "alpha": {"f": 0.10000000149011612}}}, "constants": {}}, "inbound_nodes": [[["batch_normalization_102", 0, 0, {}]]]}, {"name": "conv2d_105", "class_name": "Conv2D", "config": {"name": "conv2d_105", "trainable": true, "dtype": "float32", "filters": 512, "kernel_size": [1, 1], "strides": [1, 1], "padding": "same", "data_format": "channels_last", "dilation_rate": [1, 1], "activation": "linear", "use_bias": false, "kernel_initializer": {"class_name": "RandomNormal", "config": {"mean": 0.0, "stddev": 0.01, "seed": null, "dtype": "float32"}}, "bias_initializer": {"class_name": "Constant", "config": {"value": 0.0, "dtype": "float32"}}, "kernel_regularizer": {"class_name": "L1L2", "config": {"l1": 0.0, "l2": 0.0005000000237487257}}, "bias_regularizer": null, "activity_regularizer": null, "kernel_constraint": null, "bias_constraint": null}, "inbound_nodes": [[["tf_op_layer_LeakyRelu_30", 0, 0, {}]]]}, {"name": "batch_normalization_103", "class_name": "BatchNormalization", "config": {"name": "batch_normalization_103", "trainable": true, "dtype": "float32", "axis": [3], "momentum": 0.99, "epsilon": 0.001, "center": true, "scale": true, "beta_initializer": {"class_name": "Zeros", "config": {"dtype": "float32"}}, "gamma_initializer": {"class_name": "Ones", "config": {"dtype": "float32"}}, "moving_mean_initializer": {"class_name": "Zeros", "config": {"dtype": "float32"}}, "moving_variance_initializer": {"class_name": "Ones", "config": {"dtype": "float32"}}, "beta_regularizer": null, "gamma_regularizer": null, "beta_constraint": null, "gamma_constraint": null}, "inbound_nodes": [[["conv2d_105", 0, 0, {}]]]}, {"name": "tf_op_layer_LeakyRelu_31", "class_name": "TensorFlowOpLayer", "config": {"name": "LeakyRelu_31", "trainable": true, "dtype": null, "node_def": {"name": "LeakyRelu_31", "op": "LeakyRelu", "input": ["batch_normalization_103/FusedBatchNormV3"], "attr": {"alpha": {"f": 0.10000000149011612}, "T": {"type": "DT_FLOAT"}}}, "constants": {}}, "inbound_nodes": [[["batch_normalization_103", 0, 0, {}]]]}, {"name": "conv2d_106", "class_name": "Conv2D", "config": {"name": "conv2d_106", "trainable": true, "dtype": "float32", "filters": 1024, "kernel_size": [3, 3], "strides": [1, 1], "padding": "same", "data_format": "channels_last", "dilation_rate": [1, 1], "activation": "linear", "use_bias": false, "kernel_initializer": {"class_name": "RandomNormal", "config": {"mean": 0.0, "stddev": 0.01, "seed": null, "dtype": "float32"}}, "bias_initializer": {"class_name": "Constant", "config": {"value": 0.0, "dtype": "float32"}}, "kernel_regularizer": {"class_name": "L1L2", "config": {"l1": 0.0, "l2": 0.0005000000237487257}}, "bias_regularizer": null, "activity_regularizer": null, "kernel_constraint": null, "bias_constraint": null}, "inbound_nodes": [[["tf_op_layer_LeakyRelu_31", 0, 0, {}]]]}, {"name": "batch_normalization_104", "class_name": "BatchNormalization", "config": {"name": "batch_normalization_104", "trainable": true, "dtype": "float32", "axis": [3], "momentum": 0.99, "epsilon": 0.001, "center": true, "scale": true, "beta_initializer": {"class_name": "Zeros", "config": {"dtype": "float32"}}, "gamma_initializer": {"class_name": "Ones", "config": {"dtype": "float32"}}, "moving_mean_initializer": {"class_name": "Zeros", "config": {"dtype": "float32"}}, "moving_variance_initializer": {"class_name": "Ones", "config": {"dtype": "float32"}}, "beta_regularizer": null, "gamma_regularizer": null, "beta_constraint": null, "gamma_constraint": null}, "inbound_nodes": [[["conv2d_106", 0, 0, {}]]]}, {"name": "tf_op_layer_LeakyRelu_32", "class_name": "TensorFlowOpLayer", "config": {"name": "LeakyRelu_32", "trainable": true, "dtype": null, "node_def": {"name": "LeakyRelu_32", "op": "LeakyRelu", "input": ["batch_normalization_104/FusedBatchNormV3"], "attr": {"T": {"type": "DT_FLOAT"}, "alpha": {"f": 0.10000000149011612}}}, "constants": {}}, "inbound_nodes": [[["batch_normalization_104", 0, 0, {}]]]}, {"name": "conv2d_107", "class_name": "Conv2D", "config": {"name": "conv2d_107", "trainable": true, "dtype": "float32", "filters": 512, "kernel_size": [1, 1], "strides": [1, 1], "padding": "same", "data_format": "channels_last", "dilation_rate": [1, 1], "activation": "linear", "use_bias": false, "kernel_initializer": {"class_name": "RandomNormal", "config": {"mean": 0.0, "stddev": 0.01, "seed": null, "dtype": "float32"}}, "bias_initializer": {"class_name": "Constant", "config": {"value": 0.0, "dtype": "float32"}}, "kernel_regularizer": {"class_name": "L1L2", "config": {"l1": 0.0, "l2": 0.0005000000237487257}}, "bias_regularizer": null, "activity_regularizer": null, "kernel_constraint": null, "bias_constraint": null}, "inbound_nodes": [[["tf_op_layer_LeakyRelu_32", 0, 0, {}]]]}, {"name": "batch_normalization_105", "class_name": "BatchNormalization", "config": {"name": "batch_normalization_105", "trainable": true, "dtype": "float32", "axis": [3], "momentum": 0.99, "epsilon": 0.001, "center": true, "scale": true, "beta_initializer": {"class_name": "Zeros", "config": {"dtype": "float32"}}, "gamma_initializer": {"class_name": "Ones", "config": {"dtype": "float32"}}, "moving_mean_initializer": {"class_name": "Zeros", "config": {"dtype": "float32"}}, "moving_variance_initializer": {"class_name": "Ones", "config": {"dtype": "float32"}}, "beta_regularizer": null, "gamma_regularizer": null, "beta_constraint": null, "gamma_constraint": null}, "inbound_nodes": [[["conv2d_107", 0, 0, {}]]]}, {"name": "tf_op_layer_LeakyRelu_33", "class_name": "TensorFlowOpLayer", "config": {"name": "LeakyRelu_33", "trainable": true, "dtype": null, "node_def": {"name": "LeakyRelu_33", "op": "LeakyRelu", "input": ["batch_normalization_105/FusedBatchNormV3"], "attr": {"T": {"type": "DT_FLOAT"}, "alpha": {"f": 0.10000000149011612}}}, "constants": {}}, "inbound_nodes": [[["batch_normalization_105", 0, 0, {}]]]}, {"name": "conv2d_92", "class_name": "Conv2D", "config": {"name": "conv2d_92", "trainable": true, "dtype": "float32", "filters": 256, "kernel_size": [3, 3], "strides": [1, 1], "padding": "same", "data_format": "channels_last", "dilation_rate": [1, 1], "activation": "linear", "use_bias": false, "kernel_initializer": {"class_name": "RandomNormal", "config": {"mean": 0.0, "stddev": 0.01, "seed": null, "dtype": "float32"}}, "bias_initializer": {"class_name": "Constant", "config": {"value": 0.0, "dtype": "float32"}}, "kernel_regularizer": {"class_name": "L1L2", "config": {"l1": 0.0, "l2": 0.0005000000237487257}}, "bias_regularizer": null, "activity_regularizer": null, "kernel_constraint": null, "bias_constraint": null}, "inbound_nodes": [[["tf_op_layer_LeakyRelu_19", 0, 0, {}]]]}, {"name": "conv2d_100", "class_name": "Conv2D", "config": {"name": "conv2d_100", "trainable": true, "dtype": "float32", "filters": 512, "kernel_size": [3, 3], "strides": [1, 1], "padding": "same", "data_format": "channels_last", "dilation_rate": [1, 1], "activation": "linear", "use_bias": false, "kernel_initializer": {"class_name": "RandomNormal", "config": {"mean": 0.0, "stddev": 0.01, "seed": null, "dtype": "float32"}}, "bias_initializer": {"class_name": "Constant", "config": {"value": 0.0, "dtype": "float32"}}, "kernel_regularizer": {"class_name": "L1L2", "config": {"l1": 0.0, "l2": 0.0005000000237487257}}, "bias_regularizer": null, "activity_regularizer": null, "kernel_constraint": null, "bias_constraint": null}, "inbound_nodes": [[["tf_op_layer_LeakyRelu_26", 0, 0, {}]]]}, {"name": "conv2d_108", "class_name": "Conv2D", "config": {"name": "conv2d_108", "trainable": true, "dtype": "float32", "filters": 1024, "kernel_size": [3, 3], "strides": [1, 1], "padding": "same", "data_format": "channels_last", "dilation_rate": [1, 1], "activation": "linear", "use_bias": false, "kernel_initializer": {"class_name": "RandomNormal", "config": {"mean": 0.0, "stddev": 0.01, "seed": null, "dtype": "float32"}}, "bias_initializer": {"class_name": "Constant", "config": {"value": 0.0, "dtype": "float32"}}, "kernel_regularizer": {"class_name": "L1L2", "config": {"l1": 0.0, "l2": 0.0005000000237487257}}, "bias_regularizer": null, "activity_regularizer": null, "kernel_constraint": null, "bias_constraint": null}, "inbound_nodes": [[["tf_op_layer_LeakyRelu_33", 0, 0, {}]]]}, {"name": "batch_normalization_92", "class_name": "BatchNormalization", "config": {"name": "batch_normalization_92", "trainable": true, "dtype": "float32", "axis": [3], "momentum": 0.99, "epsilon": 0.001, "center": true, "scale": true, "beta_initializer": {"class_name": "Zeros", "config": {"dtype": "float32"}}, "gamma_initializer": {"class_name": "Ones", "config": {"dtype": "float32"}}, "moving_mean_initializer": {"class_name": "Zeros", "config": {"dtype": "float32"}}, "moving_variance_initializer": {"class_name": "Ones", "config": {"dtype": "float32"}}, "beta_regularizer": null, "gamma_regularizer": null, "beta_constraint": null, "gamma_constraint": null}, "inbound_nodes": [[["conv2d_92", 0, 0, {}]]]}, {"name": "batch_normalization_99", "class_name": "BatchNormalization", "config": {"name": "batch_normalization_99", "trainable": true, "dtype": "float32", "axis": [3], "momentum": 0.99, "epsilon": 0.001, "center": true, "scale": true, "beta_initializer": {"class_name": "Zeros", "config": {"dtype": "float32"}}, "gamma_initializer": {"class_name": "Ones", "config": {"dtype": "float32"}}, "moving_mean_initializer": {"class_name": "Zeros", "config": {"dtype": "float32"}}, "moving_variance_initializer": {"class_name": "Ones", "config": {"dtype": "float32"}}, "beta_regularizer": null, "gamma_regularizer": null, "beta_constraint": null, "gamma_constraint": null}, "inbound_nodes": [[["conv2d_100", 0, 0, {}]]]}, {"name": "batch_normalization_106", "class_name": "BatchNormalization", "config": {"name": "batch_normalization_106", "trainable": true, "dtype": "float32", "axis": [3], "momentum": 0.99, "epsilon": 0.001, "center": true, "scale": true, "beta_initializer": {"class_name": "Zeros", "config": {"dtype": "float32"}}, "gamma_initializer": {"class_name": "Ones", "config": {"dtype": "float32"}}, "moving_mean_initializer": {"class_name": "Zeros", "config": {"dtype": "float32"}}, "moving_variance_initializer": {"class_name": "Ones", "config": {"dtype": "float32"}}, "beta_regularizer": null, "gamma_regularizer": null, "beta_constraint": null, "gamma_constraint": null}, "inbound_nodes": [[["conv2d_108", 0, 0, {}]]]}, {"name": "tf_op_layer_LeakyRelu_20", "class_name": "TensorFlowOpLayer", "config": {"name": "LeakyRelu_20", "trainable": true, "dtype": null, "node_def": {"name": "LeakyRelu_20", "op": "LeakyRelu", "input": ["batch_normalization_92/FusedBatchNormV3"], "attr": {"T": {"type": "DT_FLOAT"}, "alpha": {"f": 0.10000000149011612}}}, "constants": {}}, "inbound_nodes": [[["batch_normalization_92", 0, 0, {}]]]}, {"name": "tf_op_layer_LeakyRelu_27", "class_name": "TensorFlowOpLayer", "config": {"name": "LeakyRelu_27", "trainable": true, "dtype": null, "node_def": {"name": "LeakyRelu_27", "op": "LeakyRelu", "input": ["batch_normalization_99/FusedBatchNormV3"], "attr": {"T": {"type": "DT_FLOAT"}, "alpha": {"f": 0.10000000149011612}}}, "constants": {}}, "inbound_nodes": [[["batch_normalization_99", 0, 0, {}]]]}, {"name": "tf_op_layer_LeakyRelu_34", "class_name": "TensorFlowOpLayer", "config": {"name": "LeakyRelu_34", "trainable": true, "dtype": null, "node_def": {"name": "LeakyRelu_34", "op": "LeakyRelu", "input": ["batch_normalization_106/FusedBatchNormV3"], "attr": {"alpha": {"f": 0.10000000149011612}, "T": {"type": "DT_FLOAT"}}}, "constants": {}}, "inbound_nodes": [[["batch_normalization_106", 0, 0, {}]]]}, {"name": "conv2d_93", "class_name": "Conv2D", "config": {"name": "conv2d_93", "trainable": true, "dtype": "float32", "filters": 255, "kernel_size": [1, 1], "strides": [1, 1], "padding": "same", "data_format": "channels_last", "dilation_rate": [1, 1], "activation": "linear", "use_bias": true, "kernel_initializer": {"class_name": "RandomNormal", "config": {"mean": 0.0, "stddev": 0.01, "seed": null, "dtype": "float32"}}, "bias_initializer": {"class_name": "Constant", "config": {"value": 0.0, "dtype": "float32"}}, "kernel_regularizer": {"class_name": "L1L2", "config": {"l1": 0.0, "l2": 0.0005000000237487257}}, "bias_regularizer": null, "activity_regularizer": null, "kernel_constraint": null, "bias_constraint": null}, "inbound_nodes": [[["tf_op_layer_LeakyRelu_20", 0, 0, {}]]]}, {"name": "conv2d_101", "class_name": "Conv2D", "config": {"name": "conv2d_101", "trainable": true, "dtype": "float32", "filters": 255, "kernel_size": [1, 1], "strides": [1, 1], "padding": "same", "data_format": "channels_last", "dilation_rate": [1, 1], "activation": "linear", "use_bias": true, "kernel_initializer": {"class_name": "RandomNormal", "config": {"mean": 0.0, "stddev": 0.01, "seed": null, "dtype": "float32"}}, "bias_initializer": {"class_name": "Constant", "config": {"value": 0.0, "dtype": "float32"}}, "kernel_regularizer": {"class_name": "L1L2", "config": {"l1": 0.0, "l2": 0.0005000000237487257}}, "bias_regularizer": null, "activity_regularizer": null, "kernel_constraint": null, "bias_constraint": null}, "inbound_nodes": [[["tf_op_layer_LeakyRelu_27", 0, 0, {}]]]}, {"name": "conv2d_109", "class_name": "Conv2D", "config": {"name": "conv2d_109", "trainable": true, "dtype": "float32", "filters": 255, "kernel_size": [1, 1], "strides": [1, 1], "padding": "same", "data_format": "channels_last", "dilation_rate": [1, 1], "activation": "linear", "use_bias": true, "kernel_initializer": {"class_name": "RandomNormal", "config": {"mean": 0.0, "stddev": 0.01, "seed": null, "dtype": "float32"}}, "bias_initializer": {"class_name": "Constant", "config": {"value": 0.0, "dtype": "float32"}}, "kernel_regularizer": {"class_name": "L1L2", "config": {"l1": 0.0, "l2": 0.0005000000237487257}}, "bias_regularizer": null, "activity_regularizer": null, "kernel_constraint": null, "bias_constraint": null}, "inbound_nodes": [[["tf_op_layer_LeakyRelu_34", 0, 0, {}]]]}, {"name": "tf_op_layer_Shape", "class_name": "TensorFlowOpLayer", "config": {"name": "Shape", "trainable": true, "dtype": null, "node_def": {"name": "Shape", "op": "Shape", "input": ["conv2d_93/BiasAdd"], "attr": {"T": {"type": "DT_FLOAT"}, "out_type": {"type": "DT_INT32"}}}, "constants": {}}, "inbound_nodes": [[["conv2d_93", 0, 0, {}]]]}, {"name": "tf_op_layer_Shape_1", "class_name": "TensorFlowOpLayer", "config": {"name": "Shape_1", "trainable": true, "dtype": null, "node_def": {"name": "Shape_1", "op": "Shape", "input": ["conv2d_101/BiasAdd"], "attr": {"T": {"type": "DT_FLOAT"}, "out_type": {"type": "DT_INT32"}}}, "constants": {}}, "inbound_nodes": [[["conv2d_101", 0, 0, {}]]]}, {"name": "tf_op_layer_Shape_2", "class_name": "TensorFlowOpLayer", "config": {"name": "Shape_2", "trainable": true, "dtype": null, "node_def": {"name": "Shape_2", "op": "Shape", "input": ["conv2d_109/BiasAdd"], "attr": {"T": {"type": "DT_FLOAT"}, "out_type": {"type": "DT_INT32"}}}, "constants": {}}, "inbound_nodes": [[["conv2d_109", 0, 0, {}]]]}, {"name": "tf_op_layer_strided_slice", "class_name": "TensorFlowOpLayer", "config": {"name": "strided_slice", "trainable": true, "dtype": null, "node_def": {"name": "strided_slice", "op": "StridedSlice", "input": ["Shape", "strided_slice/stack", "strided_slice/stack_1", "strided_slice/stack_2"], "attr": {"shrink_axis_mask": {"i": "1"}, "ellipsis_mask": {"i": "0"}, "begin_mask": {"i": "0"}, "new_axis_mask": {"i": "0"}, "end_mask": {"i": "0"}, "Index": {"type": "DT_INT32"}, "T": {"type": "DT_INT32"}}}, "constants": {"1": [0], "2": [1], "3": [1]}}, "inbound_nodes": [[["tf_op_layer_Shape", 0, 0, {}]]]}, {"name": "tf_op_layer_strided_slice_1", "class_name": "TensorFlowOpLayer", "config": {"name": "strided_slice_1", "trainable": true, "dtype": null, "node_def": {"name": "strided_slice_1", "op": "StridedSlice", "input": ["Shape", "strided_slice_1/stack", "strided_slice_1/stack_1", "strided_slice_1/stack_2"], "attr": {"T": {"type": "DT_INT32"}, "Index": {"type": "DT_INT32"}, "shrink_axis_mask": {"i": "1"}, "begin_mask": {"i": "0"}, "ellipsis_mask": {"i": "0"}, "new_axis_mask": {"i": "0"}, "end_mask": {"i": "0"}}}, "constants": {"1": [1], "2": [2], "3": [1]}}, "inbound_nodes": [[["tf_op_layer_Shape", 0, 0, {}]]]}, {"name": "tf_op_layer_strided_slice_2", "class_name": "TensorFlowOpLayer", "config": {"name": "strided_slice_2", "trainable": true, "dtype": null, "node_def": {"name": "strided_slice_2", "op": "StridedSlice", "input": ["Shape_1", "strided_slice_2/stack", "strided_slice_2/stack_1", "strided_slice_2/stack_2"], "attr": {"Index": {"type": "DT_INT32"}, "T": {"type": "DT_INT32"}, "shrink_axis_mask": {"i": "1"}, "begin_mask": {"i": "0"}, "ellipsis_mask": {"i": "0"}, "new_axis_mask": {"i": "0"}, "end_mask": {"i": "0"}}}, "constants": {"1": [0], "2": [1], "3": [1]}}, "inbound_nodes": [[["tf_op_layer_Shape_1", 0, 0, {}]]]}, {"name": "tf_op_layer_strided_slice_3", "class_name": "TensorFlowOpLayer", "config": {"name": "strided_slice_3", "trainable": true, "dtype": null, "node_def": {"name": "strided_slice_3", "op": "StridedSlice", "input": ["Shape_1", "strided_slice_3/stack", "strided_slice_3/stack_1", "strided_slice_3/stack_2"], "attr": {"T": {"type": "DT_INT32"}, "Index": {"type": "DT_INT32"}, "shrink_axis_mask": {"i": "1"}, "ellipsis_mask": {"i": "0"}, "begin_mask": {"i": "0"}, "new_axis_mask": {"i": "0"}, "end_mask": {"i": "0"}}}, "constants": {"1": [1], "2": [2], "3": [1]}}, "inbound_nodes": [[["tf_op_layer_Shape_1", 0, 0, {}]]]}, {"name": "tf_op_layer_strided_slice_4", "class_name": "TensorFlowOpLayer", "config": {"name": "strided_slice_4", "trainable": true, "dtype": null, "node_def": {"name": "strided_slice_4", "op": "StridedSlice", "input": ["Shape_2", "strided_slice_4/stack", "strided_slice_4/stack_1", "strided_slice_4/stack_2"], "attr": {"shrink_axis_mask": {"i": "1"}, "begin_mask": {"i": "0"}, "ellipsis_mask": {"i": "0"}, "new_axis_mask": {"i": "0"}, "end_mask": {"i": "0"}, "Index": {"type": "DT_INT32"}, "T": {"type": "DT_INT32"}}}, "constants": {"1": [0], "2": [1], "3": [1]}}, "inbound_nodes": [[["tf_op_layer_Shape_2", 0, 0, {}]]]}, {"name": "tf_op_layer_strided_slice_5", "class_name": "TensorFlowOpLayer", "config": {"name": "strided_slice_5", "trainable": true, "dtype": null, "node_def": {"name": "strided_slice_5", "op": "StridedSlice", "input": ["Shape_2", "strided_slice_5/stack", "strided_slice_5/stack_1", "strided_slice_5/stack_2"], "attr": {"T": {"type": "DT_INT32"}, "Index": {"type": "DT_INT32"}, "shrink_axis_mask": {"i": "1"}, "begin_mask": {"i": "0"}, "ellipsis_mask": {"i": "0"}, "new_axis_mask": {"i": "0"}, "end_mask": {"i": "0"}}}, "constants": {"1": [1], "2": [2], "3": [1]}}, "inbound_nodes": [[["tf_op_layer_Shape_2", 0, 0, {}]]]}, {"name": "tf_op_layer_Reshape/shape", "class_name": "TensorFlowOpLayer", "config": {"name": "Reshape/shape", "trainable": true, "dtype": null, "node_def": {"name": "Reshape/shape", "op": "Pack", "input": ["strided_slice", "strided_slice_1", "strided_slice_1", "Reshape/shape/3", "Reshape/shape/4"], "attr": {"T": {"type": "DT_INT32"}, "axis": {"i": "0"}, "N": {"i": "5"}}}, "constants": {"3": 3, "4": 85}}, "inbound_nodes": [[["tf_op_layer_strided_slice", 0, 0, {}], ["tf_op_layer_strided_slice_1", 0, 0, {}], ["tf_op_layer_strided_slice_1", 0, 0, {}]]]}, {"name": "tf_op_layer_Reshape_1/shape", "class_name": "TensorFlowOpLayer", "config": {"name": "Reshape_1/shape", "trainable": true, "dtype": null, "node_def": {"name": "Reshape_1/shape", "op": "Pack", "input": ["strided_slice_2", "strided_slice_3", "strided_slice_3", "Reshape_1/shape/3", "Reshape_1/shape/4"], "attr": {"T": {"type": "DT_INT32"}, "axis": {"i": "0"}, "N": {"i": "5"}}}, "constants": {"3": 3, "4": 85}}, "inbound_nodes": [[["tf_op_layer_strided_slice_2", 0, 0, {}], ["tf_op_layer_strided_slice_3", 0, 0, {}], ["tf_op_layer_strided_slice_3", 0, 0, {}]]]}, {"name": "tf_op_layer_Reshape_2/shape", "class_name": "TensorFlowOpLayer", "config": {"name": "Reshape_2/shape", "trainable": true, "dtype": null, "node_def": {"name": "Reshape_2/shape", "op": "Pack", "input": ["strided_slice_4", "strided_slice_5", "strided_slice_5", "Reshape_2/shape/3", "Reshape_2/shape/4"], "attr": {"T": {"type": "DT_INT32"}, "axis": {"i": "0"}, "N": {"i": "5"}}}, "constants": {"3": 3, "4": 85}}, "inbound_nodes": [[["tf_op_layer_strided_slice_4", 0, 0, {}], ["tf_op_layer_strided_slice_5", 0, 0, {}], ["tf_op_layer_strided_slice_5", 0, 0, {}]]]}, {"name": "tf_op_layer_Reshape", "class_name": "TensorFlowOpLayer", "config": {"name": "Reshape", "trainable": true, "dtype": null, "node_def": {"name": "Reshape", "op": "Reshape", "input": ["conv2d_93/BiasAdd", "Reshape/shape"], "attr": {"T": {"type": "DT_FLOAT"}, "Tshape": {"type": "DT_INT32"}}}, "constants": {}}, "inbound_nodes": [[["conv2d_93", 0, 0, {}], ["tf_op_layer_Reshape/shape", 0, 0, {}]]]}, {"name": "tf_op_layer_Reshape_1", "class_name": "TensorFlowOpLayer", "config": {"name": "Reshape_1", "trainable": true, "dtype": null, "node_def": {"name": "Reshape_1", "op": "Reshape", "input": ["conv2d_101/BiasAdd", "Reshape_1/shape"], "attr": {"T": {"type": "DT_FLOAT"}, "Tshape": {"type": "DT_INT32"}}}, "constants": {}}, "inbound_nodes": [[["conv2d_101", 0, 0, {}], ["tf_op_layer_Reshape_1/shape", 0, 0, {}]]]}, {"name": "tf_op_layer_Reshape_2", "class_name": "TensorFlowOpLayer", "config": {"name": "Reshape_2", "trainable": true, "dtype": null, "node_def": {"name": "Reshape_2", "op": "Reshape", "input": ["conv2d_109/BiasAdd", "Reshape_2/shape"], "attr": {"T": {"type": "DT_FLOAT"}, "Tshape": {"type": "DT_INT32"}}}, "constants": {}}, "inbound_nodes": [[["conv2d_109", 0, 0, {}], ["tf_op_layer_Reshape_2/shape", 0, 0, {}]]]}, {"name": "tf_op_layer_split", "class_name": "TensorFlowOpLayer", "config": {"name": "split", "trainable": true, "dtype": null, "node_def": {"name": "split", "op": "SplitV", "input": ["Reshape", "Const", "split/split_dim"], "attr": {"T": {"type": "DT_FLOAT"}, "Tlen": {"type": "DT_INT32"}, "num_split": {"i": "3"}}}, "constants": {"1": [4, 1, 80], "2": -1}}, "inbound_nodes": [[["tf_op_layer_Reshape", 0, 0, {}]]]}, {"name": "tf_op_layer_split_1", "class_name": "TensorFlowOpLayer", "config": {"name": "split_1", "trainable": true, "dtype": null, "node_def": {"name": "split_1", "op": "SplitV", "input": ["Reshape_1", "Const_1", "split_1/split_dim"], "attr": {"Tlen": {"type": "DT_INT32"}, "num_split": {"i": "3"}, "T": {"type": "DT_FLOAT"}}}, "constants": {"1": [4, 1, 80], "2": -1}}, "inbound_nodes": [[["tf_op_layer_Reshape_1", 0, 0, {}]]]}, {"name": "tf_op_layer_split_2", "class_name": "TensorFlowOpLayer", "config": {"name": "split_2", "trainable": true, "dtype": null, "node_def": {"name": "split_2", "op": "SplitV", "input": ["Reshape_2", "Const_2", "split_2/split_dim"], "attr": {"T": {"type": "DT_FLOAT"}, "Tlen": {"type": "DT_INT32"}, "num_split": {"i": "3"}}}, "constants": {"1": [4, 1, 80], "2": -1}}, "inbound_nodes": [[["tf_op_layer_Reshape_2", 0, 0, {}]]]}, {"name": "tf_op_layer_Sigmoid", "class_name": "TensorFlowOpLayer", "config": {"name": "Sigmoid", "trainable": true, "dtype": null, "node_def": {"name": "Sigmoid", "op": "Sigmoid", "input": ["split:1"], "attr": {"T": {"type": "DT_FLOAT"}}}, "constants": {}}, "inbound_nodes": [[["tf_op_layer_split", 0, 1, {}]]]}, {"name": "tf_op_layer_Sigmoid_1", "class_name": "TensorFlowOpLayer", "config": {"name": "Sigmoid_1", "trainable": true, "dtype": null, "node_def": {"name": "Sigmoid_1", "op": "Sigmoid", "input": ["split:2"], "attr": {"T": {"type": "DT_FLOAT"}}}, "constants": {}}, "inbound_nodes": [[["tf_op_layer_split", 0, 2, {}]]]}, {"name": "tf_op_layer_Sigmoid_2", "class_name": "TensorFlowOpLayer", "config": {"name": "Sigmoid_2", "trainable": true, "dtype": null, "node_def": {"name": "Sigmoid_2", "op": "Sigmoid", "input": ["split_1:1"], "attr": {"T": {"type": "DT_FLOAT"}}}, "constants": {}}, "inbound_nodes": [[["tf_op_layer_split_1", 0, 1, {}]]]}, {"name": "tf_op_layer_Sigmoid_3", "class_name": "TensorFlowOpLayer", "config": {"name": "Sigmoid_3", "trainable": true, "dtype": null, "node_def": {"name": "Sigmoid_3", "op": "Sigmoid", "input": ["split_1:2"], "attr": {"T": {"type": "DT_FLOAT"}}}, "constants": {}}, "inbound_nodes": [[["tf_op_layer_split_1", 0, 2, {}]]]}, {"name": "tf_op_layer_Sigmoid_4", "class_name": "TensorFlowOpLayer", "config": {"name": "Sigmoid_4", "trainable": true, "dtype": null, "node_def": {"name": "Sigmoid_4", "op": "Sigmoid", "input": ["split_2:1"], "attr": {"T": {"type": "DT_FLOAT"}}}, "constants": {}}, "inbound_nodes": [[["tf_op_layer_split_2", 0, 1, {}]]]}, {"name": "tf_op_layer_Sigmoid_5", "class_name": "TensorFlowOpLayer", "config": {"name": "Sigmoid_5", "trainable": true, "dtype": null, "node_def": {"name": "Sigmoid_5", "op": "Sigmoid", "input": ["split_2:2"], "attr": {"T": {"type": "DT_FLOAT"}}}, "constants": {}}, "inbound_nodes": [[["tf_op_layer_split_2", 0, 2, {}]]]}, {"name": "tf_op_layer_concat_10", "class_name": "TensorFlowOpLayer", "config": {"name": "concat_10", "trainable": true, "dtype": null, "node_def": {"name": "concat_10", "op": "ConcatV2", "input": ["split", "Sigmoid", "Sigmoid_1", "concat_10/axis"], "attr": {"T": {"type": "DT_FLOAT"}, "N": {"i": "3"}, "Tidx": {"type": "DT_INT32"}}}, "constants": {"3": -1}}, "inbound_nodes": [[["tf_op_layer_split", 0, 0, {}], ["tf_op_layer_Sigmoid", 0, 0, {}], ["tf_op_layer_Sigmoid_1", 0, 0, {}]]]}, {"name": "tf_op_layer_concat_11", "class_name": "TensorFlowOpLayer", "config": {"name": "concat_11", "trainable": true, "dtype": null, "node_def": {"name": "concat_11", "op": "ConcatV2", "input": ["split_1", "Sigmoid_2", "Sigmoid_3", "concat_11/axis"], "attr": {"N": {"i": "3"}, "Tidx": {"type": "DT_INT32"}, "T": {"type": "DT_FLOAT"}}}, "constants": {"3": -1}}, "inbound_nodes": [[["tf_op_layer_split_1", 0, 0, {}], ["tf_op_layer_Sigmoid_2", 0, 0, {}], ["tf_op_layer_Sigmoid_3", 0, 0, {}]]]}, {"name": "tf_op_layer_concat_12", "class_name": "TensorFlowOpLayer", "config": {"name": "concat_12", "trainable": true, "dtype": null, "node_def": {"name": "concat_12", "op": "ConcatV2", "input": ["split_2", "Sigmoid_4", "Sigmoid_5", "concat_12/axis"], "attr": {"T": {"type": "DT_FLOAT"}, "N": {"i": "3"}, "Tidx": {"type": "DT_INT32"}}}, "constants": {"3": -1}}, "inbound_nodes": [[["tf_op_layer_split_2", 0, 0, {}], ["tf_op_layer_Sigmoid_4", 0, 0, {}], ["tf_op_layer_Sigmoid_5", 0, 0, {}]]]}], "input_layers": [["input_1", 0, 0]], "output_layers": [["tf_op_layer_concat_10", 0, 0], ["tf_op_layer_concat_11", 0, 0], ["tf_op_layer_concat_12", 0, 0]]}, "keras_version": "2.2.4-tf", "backend": "tensorflow"}